{"format": "layers-model", "generatedBy": "keras v2.9.0", "convertedBy": "TensorFlow.js Converter v3.18.0", "modelTopology": {"keras_version": "2.9.0", "backend": "tensorflow", "model_config": {"class_name": "Functional", "config": {"name": "model", "layers": [{"class_name": "InputLayer", "config": {"batch_input_shape": [null, 1], "dtype": "float32", "sparse": false, "ragged": false, "name": "Beach_Hut"}, "name": "Beach_Hut", "inbound_nodes": []}, {"class_name": "InputLayer", "config": {"batch_input_shape": [null, 1], "dtype": "float32", "sparse": false, "ragged": false, "name": "BnB"}, "name": "BnB", "inbound_nodes": []}, {"class_name": "InputLayer", "config": {"batch_input_shape": [null, 1], "dtype": "float32", "sparse": false, "ragged": false, "name": "Bungalow"}, "name": "Bungalow", "inbound_nodes": []}, {"class_name": "InputLayer", "config": {"batch_input_shape": [null, 1], "dtype": "float32", "sparse": false, "ragged": false, "name": "Cottage"}, "name": "Cottage", "inbound_nodes": []}, {"class_name": "InputLayer", "config": {"batch_input_shape": [null, 1], "dtype": "float32", "sparse": false, "ragged": false, "name": "Farm_Stay"}, "name": "Farm_Stay", "inbound_nodes": []}, {"class_name": "InputLayer", "config": {"batch_input_shape": [null, 1], "dtype": "float32", "sparse": false, "ragged": false, "name": "Guest_House"}, "name": "Guest_House", "inbound_nodes": []}, {"class_name": "InputLayer", "config": {"batch_input_shape": [null, 1], "dtype": "float32", "sparse": false, "ragged": false, "name": "Homestay"}, "name": "Homestay", "inbound_nodes": []}, {"class_name": "InputLayer", "config": {"batch_input_shape": [null, 1], "dtype": "float32", "sparse": false, "ragged": false, "name": "Hostel"}, "name": "Hostel", "inbound_nodes": []}, {"class_name": "InputLayer", "config": {"batch_input_shape": [null, 1], "dtype": "float32", "sparse": false, "ragged": false, "name": "Hotel"}, "name": "Hotel", "inbound_nodes": []}, {"class_name": "InputLayer", "config": {"batch_input_shape": [null, 1], "dtype": "float32", "sparse": false, "ragged": false, "name": "Houseboat"}, "name": "Houseboat", "inbound_nodes": []}, {"class_name": "InputLayer", "config": {"batch_input_shape": [null, 1], "dtype": "float32", "sparse": false, "ragged": false, "name": "Lodge"}, "name": "Lodge", "inbound_nodes": []}, {"class_name": "InputLayer", "config": {"batch_input_shape": [null, 1], "dtype": "float32", "sparse": false, "ragged": false, "name": "Motel"}, "name": "Motel", "inbound_nodes": []}, {"class_name": "InputLayer", "config": {"batch_input_shape": [null, 1], "dtype": "float32", "sparse": false, "ragged": false, "name": "Palace"}, "name": "Palace", "inbound_nodes": []}, {"class_name": "InputLayer", "config": {"batch_input_shape": [null, 1], "dtype": "float32", "sparse": false, "ragged": false, "name": "Resort"}, "name": "Resort", "inbound_nodes": []}, {"class_name": "InputLayer", "config": {"batch_input_shape": [null, 1], "dtype": "float32", "sparse": false, "ragged": false, "name": "Service_Apartment"}, "name": "Service_Apartment", "inbound_nodes": []}, {"class_name": "InputLayer", "config": {"batch_input_shape": [null, 1], "dtype": "float32", "sparse": false, "ragged": false, "name": "Tent"}, "name": "Tent", "inbound_nodes": []}, {"class_name": "InputLayer", "config": {"batch_input_shape": [null, 1], "dtype": "float32", "sparse": false, "ragged": false, "name": "Villa"}, "name": "Villa", "inbound_nodes": []}, {"class_name": "InputLayer", "config": {"batch_input_shape": [null, 1], "dtype": "float32", "sparse": false, "ragged": false, "name": "_Bike_on_Rent"}, "name": "_Bike_on_Rent", "inbound_nodes": []}, {"class_name": "InputLayer", "config": {"batch_input_shape": [null, 1], "dtype": "float32", "sparse": false, "ragged": false, "name": "_Drivers_Rest_Room"}, "name": "_Drivers_Rest_Room", "inbound_nodes": []}, {"class_name": "InputLayer", "config": {"batch_input_shape": [null, 1], "dtype": "float32", "sparse": false, "ragged": false, "name": "ATM__Banking"}, "name": "ATM__Banking", "inbound_nodes": []}, {"class_name": "InputLayer", "config": {"batch_input_shape": [null, 1], "dtype": "float32", "sparse": false, "ragged": false, "name": "Access_Via_Exterior_Corridors"}, "name": "Access_Via_Exterior_Corridors", "inbound_nodes": []}, {"class_name": "InputLayer", "config": {"batch_input_shape": [null, 1], "dtype": "float32", "sparse": false, "ragged": false, "name": "Adjoining_Rooms"}, "name": "Adjoining_Rooms", "inbound_nodes": []}, {"class_name": "InputLayer", "config": {"batch_input_shape": [null, 1], "dtype": "float32", "sparse": false, "ragged": false, "name": "Air__Rail_Booking"}, "name": "Air__Rail_Booking", "inbound_nodes": []}, {"class_name": "InputLayer", "config": {"batch_input_shape": [null, 1], "dtype": "float32", "sparse": false, "ragged": false, "name": "Air-Conditioning_-_Central"}, "name": "Air-Conditioning_-_Central", "inbound_nodes": []}, {"class_name": "InputLayer", "config": {"batch_input_shape": [null, 1], "dtype": "float32", "sparse": false, "ragged": false, "name": "Amphitheatre"}, "name": "Amphitheatre", "inbound_nodes": []}, {"class_name": "InputLayer", "config": {"batch_input_shape": [null, 1], "dtype": "float32", "sparse": false, "ragged": false, "name": "Ayurvedic_Facilities_"}, "name": "Ayurvedic_Facilities_", "inbound_nodes": []}, {"class_name": "InputLayer", "config": {"batch_input_shape": [null, 1], "dtype": "float32", "sparse": false, "ragged": false, "name": "Babysitting_Child_Care_surcharge"}, "name": "Babysitting_Child_Care_surcharge", "inbound_nodes": []}, {"class_name": "InputLayer", "config": {"batch_input_shape": [null, 1], "dtype": "float32", "sparse": false, "ragged": false, "name": "Badminttion_Court"}, "name": "Badminttion_Court", "inbound_nodes": []}, {"class_name": "InputLayer", "config": {"batch_input_shape": [null, 1], "dtype": "float32", "sparse": false, "ragged": false, "name": "Baggage_Room"}, "name": "Baggage_Room", "inbound_nodes": []}, {"class_name": "InputLayer", "config": {"batch_input_shape": [null, 1], "dtype": "float32", "sparse": false, "ragged": false, "name": "Ballroom"}, "name": "Ballroom", "inbound_nodes": []}, {"class_name": "InputLayer", "config": {"batch_input_shape": [null, 1], "dtype": "float32", "sparse": false, "ragged": false, "name": "Banquet_Facilities"}, "name": "Banquet_Facilities", "inbound_nodes": []}, {"class_name": "InputLayer", "config": {"batch_input_shape": [null, 1], "dtype": "float32", "sparse": false, "ragged": false, "name": "Bar__Lounge_"}, "name": "Bar__Lounge_", "inbound_nodes": []}, {"class_name": "InputLayer", "config": {"batch_input_shape": [null, 1], "dtype": "float32", "sparse": false, "ragged": false, "name": "Barbecue_Area"}, "name": "Barbecue_Area", "inbound_nodes": []}, {"class_name": "InputLayer", "config": {"batch_input_shape": [null, 1], "dtype": "float32", "sparse": false, "ragged": false, "name": "Basketball_Court_"}, "name": "Basketball_Court_", "inbound_nodes": []}, {"class_name": "InputLayer", "config": {"batch_input_shape": [null, 1], "dtype": "float32", "sparse": false, "ragged": false, "name": "Beauty_Salon_-_on_charge"}, "name": "Beauty_Salon_-_on_charge", "inbound_nodes": []}, {"class_name": "InputLayer", "config": {"batch_input_shape": [null, 1], "dtype": "float32", "sparse": false, "ragged": false, "name": "Billiards"}, "name": "Billiards", "inbound_nodes": []}, {"class_name": "InputLayer", "config": {"batch_input_shape": [null, 1], "dtype": "float32", "sparse": false, "ragged": false, "name": "Board_Room"}, "name": "Board_Room", "inbound_nodes": []}, {"class_name": "InputLayer", "config": {"batch_input_shape": [null, 1], "dtype": "float32", "sparse": false, "ragged": false, "name": "Bowling"}, "name": "Bowling", "inbound_nodes": []}, {"class_name": "InputLayer", "config": {"batch_input_shape": [null, 1], "dtype": "float32", "sparse": false, "ragged": false, "name": "Business_Center"}, "name": "Business_Center", "inbound_nodes": []}, {"class_name": "InputLayer", "config": {"batch_input_shape": [null, 1], "dtype": "float32", "sparse": false, "ragged": false, "name": "CCTV"}, "name": "CCTV", "inbound_nodes": []}, {"class_name": "InputLayer", "config": {"batch_input_shape": [null, 1], "dtype": "float32", "sparse": false, "ragged": false, "name": "Campfire__Bon_Fire"}, "name": "Campfire__Bon_Fire", "inbound_nodes": []}, {"class_name": "InputLayer", "config": {"batch_input_shape": [null, 1], "dtype": "float32", "sparse": false, "ragged": false, "name": "Car_Rental"}, "name": "Car_Rental", "inbound_nodes": []}, {"class_name": "InputLayer", "config": {"batch_input_shape": [null, 1], "dtype": "float32", "sparse": false, "ragged": false, "name": "Casino"}, "name": "Casino", "inbound_nodes": []}, {"class_name": "InputLayer", "config": {"batch_input_shape": [null, 1], "dtype": "float32", "sparse": false, "ragged": false, "name": "Catering"}, "name": "Catering", "inbound_nodes": []}, {"class_name": "InputLayer", "config": {"batch_input_shape": [null, 1], "dtype": "float32", "sparse": false, "ragged": false, "name": "Cell_Phone_Rental"}, "name": "Cell_Phone_Rental", "inbound_nodes": []}, {"class_name": "InputLayer", "config": {"batch_input_shape": [null, 1], "dtype": "float32", "sparse": false, "ragged": false, "name": "Children_s_Park"}, "name": "Children_s_Park", "inbound_nodes": []}, {"class_name": "InputLayer", "config": {"batch_input_shape": [null, 1], "dtype": "float32", "sparse": false, "ragged": false, "name": "City_Shuttle_Service"}, "name": "City_Shuttle_Service", "inbound_nodes": []}, {"class_name": "InputLayer", "config": {"batch_input_shape": [null, 1], "dtype": "float32", "sparse": false, "ragged": false, "name": "Clubhouse"}, "name": "Clubhouse", "inbound_nodes": []}, {"class_name": "InputLayer", "config": {"batch_input_shape": [null, 1], "dtype": "float32", "sparse": false, "ragged": false, "name": "Coffee_Shop__Cafe"}, "name": "Coffee_Shop__Cafe", "inbound_nodes": []}, {"class_name": "InputLayer", "config": {"batch_input_shape": [null, 1], "dtype": "float32", "sparse": false, "ragged": false, "name": "Computer_Rental"}, "name": "Computer_Rental", "inbound_nodes": []}, {"class_name": "InputLayer", "config": {"batch_input_shape": [null, 1], "dtype": "float32", "sparse": false, "ragged": false, "name": "Concierge"}, "name": "Concierge", "inbound_nodes": []}, {"class_name": "InputLayer", "config": {"batch_input_shape": [null, 1], "dtype": "float32", "sparse": false, "ragged": false, "name": "Conference_Facility"}, "name": "Conference_Facility", "inbound_nodes": []}, {"class_name": "InputLayer", "config": {"batch_input_shape": [null, 1], "dtype": "float32", "sparse": false, "ragged": false, "name": "Courier_Service"}, "name": "Courier_Service", "inbound_nodes": []}, {"class_name": "InputLayer", "config": {"batch_input_shape": [null, 1], "dtype": "float32", "sparse": false, "ragged": false, "name": "Currency_Exchange"}, "name": "Currency_Exchange", "inbound_nodes": []}, {"class_name": "InputLayer", "config": {"batch_input_shape": [null, 1], "dtype": "float32", "sparse": false, "ragged": false, "name": "Disabled_Friendly_Facilities_"}, "name": "Disabled_Friendly_Facilities_", "inbound_nodes": []}, {"class_name": "InputLayer", "config": {"batch_input_shape": [null, 1], "dtype": "float32", "sparse": false, "ragged": false, "name": "Disabled_Friendly_Rooms"}, "name": "Disabled_Friendly_Rooms", "inbound_nodes": []}, {"class_name": "InputLayer", "config": {"batch_input_shape": [null, 1], "dtype": "float32", "sparse": false, "ragged": false, "name": "Discotheque_"}, "name": "Discotheque_", "inbound_nodes": []}, {"class_name": "InputLayer", "config": {"batch_input_shape": [null, 1], "dtype": "float32", "sparse": false, "ragged": false, "name": "Doctor_on_Call"}, "name": "Doctor_on_Call", "inbound_nodes": []}, {"class_name": "InputLayer", "config": {"batch_input_shape": [null, 1], "dtype": "float32", "sparse": false, "ragged": false, "name": "Doorman"}, "name": "Doorman", "inbound_nodes": []}, {"class_name": "InputLayer", "config": {"batch_input_shape": [null, 1], "dtype": "float32", "sparse": false, "ragged": false, "name": "Dry_Cleaning"}, "name": "Dry_Cleaning", "inbound_nodes": []}, {"class_name": "InputLayer", "config": {"batch_input_shape": [null, 1], "dtype": "float32", "sparse": false, "ragged": false, "name": "Electronic__Magnetic_Keys"}, "name": "Electronic__Magnetic_Keys", "inbound_nodes": []}, {"class_name": "InputLayer", "config": {"batch_input_shape": [null, 1], "dtype": "float32", "sparse": false, "ragged": false, "name": "Electronic_Check-Out"}, "name": "Electronic_Check-Out", "inbound_nodes": []}, {"class_name": "InputLayer", "config": {"batch_input_shape": [null, 1], "dtype": "float32", "sparse": false, "ragged": false, "name": "Exhibit_Space"}, "name": "Exhibit_Space", "inbound_nodes": []}, {"class_name": "InputLayer", "config": {"batch_input_shape": [null, 1], "dtype": "float32", "sparse": false, "ragged": false, "name": "Express_Check-In__Check-Out"}, "name": "Express_Check-In__Check-Out", "inbound_nodes": []}, {"class_name": "InputLayer", "config": {"batch_input_shape": [null, 1], "dtype": "float32", "sparse": false, "ragged": false, "name": "Express_Laundry"}, "name": "Express_Laundry", "inbound_nodes": []}, {"class_name": "InputLayer", "config": {"batch_input_shape": [null, 1], "dtype": "float32", "sparse": false, "ragged": false, "name": "Extra_Person__Child_-_Share_the_same_room"}, "name": "Extra_Person__Child_-_Share_the_same_room", "inbound_nodes": []}, {"class_name": "InputLayer", "config": {"batch_input_shape": [null, 1], "dtype": "float32", "sparse": false, "ragged": false, "name": "Family_Room"}, "name": "Family_Room", "inbound_nodes": []}, {"class_name": "InputLayer", "config": {"batch_input_shape": [null, 1], "dtype": "float32", "sparse": false, "ragged": false, "name": "Fax_Machine"}, "name": "Fax_Machine", "inbound_nodes": []}, {"class_name": "InputLayer", "config": {"batch_input_shape": [null, 1], "dtype": "float32", "sparse": false, "ragged": false, "name": "Fire_Place_Available_"}, "name": "Fire_Place_Available_", "inbound_nodes": []}, {"class_name": "InputLayer", "config": {"batch_input_shape": [null, 1], "dtype": "float32", "sparse": false, "ragged": false, "name": "Fire_Safety"}, "name": "Fire_Safety", "inbound_nodes": []}, {"class_name": "InputLayer", "config": {"batch_input_shape": [null, 1], "dtype": "float32", "sparse": false, "ragged": false, "name": "First-Aid_Kit_at_Front_Desk"}, "name": "First-Aid_Kit_at_Front_Desk", "inbound_nodes": []}, {"class_name": "InputLayer", "config": {"batch_input_shape": [null, 1], "dtype": "float32", "sparse": false, "ragged": false, "name": "Fishing"}, "name": "Fishing", "inbound_nodes": []}, {"class_name": "InputLayer", "config": {"batch_input_shape": [null, 1], "dtype": "float32", "sparse": false, "ragged": false, "name": "Fitness_Equipment"}, "name": "Fitness_Equipment", "inbound_nodes": []}, {"class_name": "InputLayer", "config": {"batch_input_shape": [null, 1], "dtype": "float32", "sparse": false, "ragged": false, "name": "Floor_Butler"}, "name": "Floor_Butler", "inbound_nodes": []}, {"class_name": "InputLayer", "config": {"batch_input_shape": [null, 1], "dtype": "float32", "sparse": false, "ragged": false, "name": "Flower_Shop"}, "name": "Flower_Shop", "inbound_nodes": []}, {"class_name": "InputLayer", "config": {"batch_input_shape": [null, 1], "dtype": "float32", "sparse": false, "ragged": false, "name": "Free_Local_Calls"}, "name": "Free_Local_Calls", "inbound_nodes": []}, {"class_name": "InputLayer", "config": {"batch_input_shape": [null, 1], "dtype": "float32", "sparse": false, "ragged": false, "name": "Front_Desk"}, "name": "Front_Desk", "inbound_nodes": []}, {"class_name": "InputLayer", "config": {"batch_input_shape": [null, 1], "dtype": "float32", "sparse": false, "ragged": false, "name": "Full_Time_Operation_for_All_7_Days"}, "name": "Full_Time_Operation_for_All_7_Days", "inbound_nodes": []}, {"class_name": "InputLayer", "config": {"batch_input_shape": [null, 1], "dtype": "float32", "sparse": false, "ragged": false, "name": "Fun_Floats"}, "name": "Fun_Floats", "inbound_nodes": []}, {"class_name": "InputLayer", "config": {"batch_input_shape": [null, 1], "dtype": "float32", "sparse": false, "ragged": false, "name": "Games_Zone"}, "name": "Games_Zone", "inbound_nodes": []}, {"class_name": "InputLayer", "config": {"batch_input_shape": [null, 1], "dtype": "float32", "sparse": false, "ragged": false, "name": "Gardens"}, "name": "Gardens", "inbound_nodes": []}, {"class_name": "InputLayer", "config": {"batch_input_shape": [null, 1], "dtype": "float32", "sparse": false, "ragged": false, "name": "Gift_Shop_"}, "name": "Gift_Shop_", "inbound_nodes": []}, {"class_name": "InputLayer", "config": {"batch_input_shape": [null, 1], "dtype": "float32", "sparse": false, "ragged": false, "name": "Golf_Course"}, "name": "Golf_Course", "inbound_nodes": []}, {"class_name": "InputLayer", "config": {"batch_input_shape": [null, 1], "dtype": "float32", "sparse": false, "ragged": false, "name": "Grocery"}, "name": "Grocery", "inbound_nodes": []}, {"class_name": "InputLayer", "config": {"batch_input_shape": [null, 1], "dtype": "float32", "sparse": false, "ragged": false, "name": "Guide__Sightseeing_Service"}, "name": "Guide__Sightseeing_Service", "inbound_nodes": []}, {"class_name": "InputLayer", "config": {"batch_input_shape": [null, 1], "dtype": "float32", "sparse": false, "ragged": false, "name": "Health_Club__Gym_Facility_Available"}, "name": "Health_Club__Gym_Facility_Available", "inbound_nodes": []}, {"class_name": "InputLayer", "config": {"batch_input_shape": [null, 1], "dtype": "float32", "sparse": false, "ragged": false, "name": "Hookah_Lounge"}, "name": "Hookah_Lounge", "inbound_nodes": []}, {"class_name": "InputLayer", "config": {"batch_input_shape": [null, 1], "dtype": "float32", "sparse": false, "ragged": false, "name": "In_House_Events_"}, "name": "In_House_Events_", "inbound_nodes": []}, {"class_name": "InputLayer", "config": {"batch_input_shape": [null, 1], "dtype": "float32", "sparse": false, "ragged": false, "name": "Internet_Access_-_Surcharge"}, "name": "Internet_Access_-_Surcharge", "inbound_nodes": []}, {"class_name": "InputLayer", "config": {"batch_input_shape": [null, 1], "dtype": "float32", "sparse": false, "ragged": false, "name": "Jacuzzi"}, "name": "Jacuzzi", "inbound_nodes": []}, {"class_name": "InputLayer", "config": {"batch_input_shape": [null, 1], "dtype": "float32", "sparse": false, "ragged": false, "name": "Karaoke"}, "name": "Karaoke", "inbound_nodes": []}, {"class_name": "InputLayer", "config": {"batch_input_shape": [null, 1], "dtype": "float32", "sparse": false, "ragged": false, "name": "Kids_Play_Zone"}, "name": "Kids_Play_Zone", "inbound_nodes": []}, {"class_name": "InputLayer", "config": {"batch_input_shape": [null, 1], "dtype": "float32", "sparse": false, "ragged": false, "name": "Laundry_Service_Available"}, "name": "Laundry_Service_Available", "inbound_nodes": []}, {"class_name": "InputLayer", "config": {"batch_input_shape": [null, 1], "dtype": "float32", "sparse": false, "ragged": false, "name": "Library"}, "name": "Library", "inbound_nodes": []}, {"class_name": "InputLayer", "config": {"batch_input_shape": [null, 1], "dtype": "float32", "sparse": false, "ragged": false, "name": "Lift__Elevator"}, "name": "Lift__Elevator", "inbound_nodes": []}, {"class_name": "InputLayer", "config": {"batch_input_shape": [null, 1], "dtype": "float32", "sparse": false, "ragged": false, "name": "Limousine_Service_Available"}, "name": "Limousine_Service_Available", "inbound_nodes": []}, {"class_name": "InputLayer", "config": {"batch_input_shape": [null, 1], "dtype": "float32", "sparse": false, "ragged": false, "name": "Lobby"}, "name": "Lobby", "inbound_nodes": []}, {"class_name": "InputLayer", "config": {"batch_input_shape": [null, 1], "dtype": "float32", "sparse": false, "ragged": false, "name": "Local_Tour__Travel_Desk"}, "name": "Local_Tour__Travel_Desk", "inbound_nodes": []}, {"class_name": "InputLayer", "config": {"batch_input_shape": [null, 1], "dtype": "float32", "sparse": false, "ragged": false, "name": "Locker_Facility"}, "name": "Locker_Facility", "inbound_nodes": []}, {"class_name": "InputLayer", "config": {"batch_input_shape": [null, 1], "dtype": "float32", "sparse": false, "ragged": false, "name": "Major_Credit_Cards_Accepted"}, "name": "Major_Credit_Cards_Accepted", "inbound_nodes": []}, {"class_name": "InputLayer", "config": {"batch_input_shape": [null, 1], "dtype": "float32", "sparse": false, "ragged": false, "name": "Marina_On_Site"}, "name": "Marina_On_Site", "inbound_nodes": []}, {"class_name": "InputLayer", "config": {"batch_input_shape": [null, 1], "dtype": "float32", "sparse": false, "ragged": false, "name": "Massage_Services"}, "name": "Massage_Services", "inbound_nodes": []}, {"class_name": "InputLayer", "config": {"batch_input_shape": [null, 1], "dtype": "float32", "sparse": false, "ragged": false, "name": "Medical_Assistance_Available"}, "name": "Medical_Assistance_Available", "inbound_nodes": []}, {"class_name": "InputLayer", "config": {"batch_input_shape": [null, 1], "dtype": "float32", "sparse": false, "ragged": false, "name": "Metal_Detectors"}, "name": "Metal_Detectors", "inbound_nodes": []}, {"class_name": "InputLayer", "config": {"batch_input_shape": [null, 1], "dtype": "float32", "sparse": false, "ragged": false, "name": "Mini_Theatre"}, "name": "Mini_Theatre", "inbound_nodes": []}, {"class_name": "InputLayer", "config": {"batch_input_shape": [null, 1], "dtype": "float32", "sparse": false, "ragged": false, "name": "Multi_Cuisine_Restaurant"}, "name": "Multi_Cuisine_Restaurant", "inbound_nodes": []}, {"class_name": "InputLayer", "config": {"batch_input_shape": [null, 1], "dtype": "float32", "sparse": false, "ragged": false, "name": "Multi_Lingual_Staff"}, "name": "Multi_Lingual_Staff", "inbound_nodes": []}, {"class_name": "InputLayer", "config": {"batch_input_shape": [null, 1], "dtype": "float32", "sparse": false, "ragged": false, "name": "Nature_Walk"}, "name": "Nature_Walk", "inbound_nodes": []}, {"class_name": "InputLayer", "config": {"batch_input_shape": [null, 1], "dtype": "float32", "sparse": false, "ragged": false, "name": "Night_Club"}, "name": "Night_Club", "inbound_nodes": []}, {"class_name": "InputLayer", "config": {"batch_input_shape": [null, 1], "dtype": "float32", "sparse": false, "ragged": false, "name": "Open_Air_Restaurant__Dining"}, "name": "Open_Air_Restaurant__Dining", "inbound_nodes": []}, {"class_name": "InputLayer", "config": {"batch_input_shape": [null, 1], "dtype": "float32", "sparse": false, "ragged": false, "name": "Oxygen_Cylinder_on_request"}, "name": "Oxygen_Cylinder_on_request", "inbound_nodes": []}, {"class_name": "InputLayer", "config": {"batch_input_shape": [null, 1], "dtype": "float32", "sparse": false, "ragged": false, "name": "Paid_Transfers"}, "name": "Paid_Transfers", "inbound_nodes": []}, {"class_name": "InputLayer", "config": {"batch_input_shape": [null, 1], "dtype": "float32", "sparse": false, "ragged": false, "name": "Parking_Facility"}, "name": "Parking_Facility", "inbound_nodes": []}, {"class_name": "InputLayer", "config": {"batch_input_shape": [null, 1], "dtype": "float32", "sparse": false, "ragged": false, "name": "Party_hall"}, "name": "Party_hall", "inbound_nodes": []}, {"class_name": "InputLayer", "config": {"batch_input_shape": [null, 1], "dtype": "float32", "sparse": false, "ragged": false, "name": "Pest_Control_Facility"}, "name": "Pest_Control_Facility", "inbound_nodes": []}, {"class_name": "InputLayer", "config": {"batch_input_shape": [null, 1], "dtype": "float32", "sparse": false, "ragged": false, "name": "Pets_Allowed"}, "name": "Pets_Allowed", "inbound_nodes": []}, {"class_name": "InputLayer", "config": {"batch_input_shape": [null, 1], "dtype": "float32", "sparse": false, "ragged": false, "name": "Pick_Up_and_Drop_Rly_Station__Bus_Stand__Temple"}, "name": "Pick_Up_and_Drop_Rly_Station__Bus_Stand__Temple", "inbound_nodes": []}, {"class_name": "InputLayer", "config": {"batch_input_shape": [null, 1], "dtype": "float32", "sparse": false, "ragged": false, "name": "Picnic_Area"}, "name": "Picnic_Area", "inbound_nodes": []}, {"class_name": "InputLayer", "config": {"batch_input_shape": [null, 1], "dtype": "float32", "sparse": false, "ragged": false, "name": "Pool_Table"}, "name": "Pool_Table", "inbound_nodes": []}, {"class_name": "InputLayer", "config": {"batch_input_shape": [null, 1], "dtype": "float32", "sparse": false, "ragged": false, "name": "Postal__Parcel_Services"}, "name": "Postal__Parcel_Services", "inbound_nodes": []}, {"class_name": "InputLayer", "config": {"batch_input_shape": [null, 1], "dtype": "float32", "sparse": false, "ragged": false, "name": "Power_Backup"}, "name": "Power_Backup", "inbound_nodes": []}, {"class_name": "InputLayer", "config": {"batch_input_shape": [null, 1], "dtype": "float32", "sparse": false, "ragged": false, "name": "Private__Plunge_Pool"}, "name": "Private__Plunge_Pool", "inbound_nodes": []}, {"class_name": "InputLayer", "config": {"batch_input_shape": [null, 1], "dtype": "float32", "sparse": false, "ragged": false, "name": "Private_Beach"}, "name": "Private_Beach", "inbound_nodes": []}, {"class_name": "InputLayer", "config": {"batch_input_shape": [null, 1], "dtype": "float32", "sparse": false, "ragged": false, "name": "Public_Restrooms"}, "name": "Public_Restrooms", "inbound_nodes": []}, {"class_name": "InputLayer", "config": {"batch_input_shape": [null, 1], "dtype": "float32", "sparse": false, "ragged": false, "name": "RO_Water_Purification_System"}, "name": "RO_Water_Purification_System", "inbound_nodes": []}, {"class_name": "InputLayer", "config": {"batch_input_shape": [null, 1], "dtype": "float32", "sparse": false, "ragged": false, "name": "Recreation_Zone"}, "name": "Recreation_Zone", "inbound_nodes": []}, {"class_name": "InputLayer", "config": {"batch_input_shape": [null, 1], "dtype": "float32", "sparse": false, "ragged": false, "name": "Restaurant"}, "name": "Restaurant", "inbound_nodes": []}, {"class_name": "InputLayer", "config": {"batch_input_shape": [null, 1], "dtype": "float32", "sparse": false, "ragged": false, "name": "Rooftop_Garden"}, "name": "Rooftop_Garden", "inbound_nodes": []}, {"class_name": "InputLayer", "config": {"batch_input_shape": [null, 1], "dtype": "float32", "sparse": false, "ragged": false, "name": "Sauna"}, "name": "Sauna", "inbound_nodes": []}, {"class_name": "InputLayer", "config": {"batch_input_shape": [null, 1], "dtype": "float32", "sparse": false, "ragged": false, "name": "Secretarial_Services"}, "name": "Secretarial_Services", "inbound_nodes": []}, {"class_name": "InputLayer", "config": {"batch_input_shape": [null, 1], "dtype": "float32", "sparse": false, "ragged": false, "name": "Security_at_All_Hotel_Entrances"}, "name": "Security_at_All_Hotel_Entrances", "inbound_nodes": []}, {"class_name": "InputLayer", "config": {"batch_input_shape": [null, 1], "dtype": "float32", "sparse": false, "ragged": false, "name": "Self_Check_-_In"}, "name": "Self_Check_-_In", "inbound_nodes": []}, {"class_name": "InputLayer", "config": {"batch_input_shape": [null, 1], "dtype": "float32", "sparse": false, "ragged": false, "name": "Separate_Sitting_Area"}, "name": "Separate_Sitting_Area", "inbound_nodes": []}, {"class_name": "InputLayer", "config": {"batch_input_shape": [null, 1], "dtype": "float32", "sparse": false, "ragged": false, "name": "Skiing_Facility_Available"}, "name": "Skiing_Facility_Available", "inbound_nodes": []}, {"class_name": "InputLayer", "config": {"batch_input_shape": [null, 1], "dtype": "float32", "sparse": false, "ragged": false, "name": "Smoke_Detector"}, "name": "Smoke_Detector", "inbound_nodes": []}, {"class_name": "InputLayer", "config": {"batch_input_shape": [null, 1], "dtype": "float32", "sparse": false, "ragged": false, "name": "Smoking_Area"}, "name": "Smoking_Area", "inbound_nodes": []}, {"class_name": "InputLayer", "config": {"batch_input_shape": [null, 1], "dtype": "float32", "sparse": false, "ragged": false, "name": "Solarium"}, "name": "Solarium", "inbound_nodes": []}, {"class_name": "InputLayer", "config": {"batch_input_shape": [null, 1], "dtype": "float32", "sparse": false, "ragged": false, "name": "Speciality_Restaurant"}, "name": "Speciality_Restaurant", "inbound_nodes": []}, {"class_name": "InputLayer", "config": {"batch_input_shape": [null, 1], "dtype": "float32", "sparse": false, "ragged": false, "name": "Squash_court"}, "name": "Squash_court", "inbound_nodes": []}, {"class_name": "InputLayer", "config": {"batch_input_shape": [null, 1], "dtype": "float32", "sparse": false, "ragged": false, "name": "Stamps_and_Mailing_Facility"}, "name": "Stamps_and_Mailing_Facility", "inbound_nodes": []}, {"class_name": "InputLayer", "config": {"batch_input_shape": [null, 1], "dtype": "float32", "sparse": false, "ragged": false, "name": "Suites"}, "name": "Suites", "inbound_nodes": []}, {"class_name": "InputLayer", "config": {"batch_input_shape": [null, 1], "dtype": "float32", "sparse": false, "ragged": false, "name": "Swimming_Pool"}, "name": "Swimming_Pool", "inbound_nodes": []}, {"class_name": "InputLayer", "config": {"batch_input_shape": [null, 1], "dtype": "float32", "sparse": false, "ragged": false, "name": "Table_Tennis"}, "name": "Table_Tennis", "inbound_nodes": []}, {"class_name": "InputLayer", "config": {"batch_input_shape": [null, 1], "dtype": "float32", "sparse": false, "ragged": false, "name": "Taxi_Services"}, "name": "Taxi_Services", "inbound_nodes": []}, {"class_name": "InputLayer", "config": {"batch_input_shape": [null, 1], "dtype": "float32", "sparse": false, "ragged": false, "name": "Tennis_Court"}, "name": "Tennis_Court", "inbound_nodes": []}, {"class_name": "InputLayer", "config": {"batch_input_shape": [null, 1], "dtype": "float32", "sparse": false, "ragged": false, "name": "Valet_service"}, "name": "Valet_service", "inbound_nodes": []}, {"class_name": "InputLayer", "config": {"batch_input_shape": [null, 1], "dtype": "float32", "sparse": false, "ragged": false, "name": "Vegetarian_Food__Jain_Food_Available"}, "name": "Vegetarian_Food__Jain_Food_Available", "inbound_nodes": []}, {"class_name": "InputLayer", "config": {"batch_input_shape": [null, 1], "dtype": "float32", "sparse": false, "ragged": false, "name": "Veranda"}, "name": "Veranda", "inbound_nodes": []}, {"class_name": "InputLayer", "config": {"batch_input_shape": [null, 1], "dtype": "float32", "sparse": false, "ragged": false, "name": "Virtual_Golf"}, "name": "Virtual_Golf", "inbound_nodes": []}, {"class_name": "InputLayer", "config": {"batch_input_shape": [null, 1], "dtype": "float32", "sparse": false, "ragged": false, "name": "Voicemail"}, "name": "Voicemail", "inbound_nodes": []}, {"class_name": "InputLayer", "config": {"batch_input_shape": [null, 1], "dtype": "float32", "sparse": false, "ragged": false, "name": "Wake-up_Call__Service"}, "name": "Wake-up_Call__Service", "inbound_nodes": []}, {"class_name": "InputLayer", "config": {"batch_input_shape": [null, 1], "dtype": "float32", "sparse": false, "ragged": false, "name": "Water_Dispenser_Available"}, "name": "Water_Dispenser_Available", "inbound_nodes": []}, {"class_name": "InputLayer", "config": {"batch_input_shape": [null, 1], "dtype": "float32", "sparse": false, "ragged": false, "name": "Wedding_Services_Facility"}, "name": "Wedding_Services_Facility", "inbound_nodes": []}, {"class_name": "InputLayer", "config": {"batch_input_shape": [null, 1], "dtype": "float32", "sparse": false, "ragged": false, "name": "Welcome_Drinks"}, "name": "Welcome_Drinks", "inbound_nodes": []}, {"class_name": "InputLayer", "config": {"batch_input_shape": [null, 1], "dtype": "float32", "sparse": false, "ragged": false, "name": "Wheelchair_Accessibility_-_Room"}, "name": "Wheelchair_Accessibility_-_Room", "inbound_nodes": []}, {"class_name": "InputLayer", "config": {"batch_input_shape": [null, 1], "dtype": "float32", "sparse": false, "ragged": false, "name": "Whirlpool_Bath__Shower_Cubicle"}, "name": "Whirlpool_Bath__Shower_Cubicle", "inbound_nodes": []}, {"class_name": "InputLayer", "config": {"batch_input_shape": [null, 1], "dtype": "float32", "sparse": false, "ragged": false, "name": "X-Ray_Machine_at_Entrance"}, "name": "X-Ray_Machine_at_Entrance", "inbound_nodes": []}, {"class_name": "InputLayer", "config": {"batch_input_shape": [null, 1], "dtype": "float32", "sparse": false, "ragged": false, "name": "120_AC"}, "name": "120_AC", "inbound_nodes": []}, {"class_name": "InputLayer", "config": {"batch_input_shape": [null, 1], "dtype": "float32", "sparse": false, "ragged": false, "name": "220_AC"}, "name": "220_AC", "inbound_nodes": []}, {"class_name": "InputLayer", "config": {"batch_input_shape": [null, 1], "dtype": "float32", "sparse": false, "ragged": false, "name": "Air_Conditioning"}, "name": "Air_Conditioning", "inbound_nodes": []}, {"class_name": "InputLayer", "config": {"batch_input_shape": [null, 1], "dtype": "float32", "sparse": false, "ragged": false, "name": "Air_Cooler"}, "name": "Air_Cooler", "inbound_nodes": []}, {"class_name": "InputLayer", "config": {"batch_input_shape": [null, 1], "dtype": "float32", "sparse": false, "ragged": false, "name": "Alarm_Clock"}, "name": "Alarm_Clock", "inbound_nodes": []}, {"class_name": "InputLayer", "config": {"batch_input_shape": [null, 1], "dtype": "float32", "sparse": false, "ragged": false, "name": "Attached_Bathroom"}, "name": "Attached_Bathroom", "inbound_nodes": []}, {"class_name": "InputLayer", "config": {"batch_input_shape": [null, 1], "dtype": "float32", "sparse": false, "ragged": false, "name": "Balcony"}, "name": "Balcony", "inbound_nodes": []}, {"class_name": "InputLayer", "config": {"batch_input_shape": [null, 1], "dtype": "float32", "sparse": false, "ragged": false, "name": "Bathrobe"}, "name": "Bathrobe", "inbound_nodes": []}, {"class_name": "InputLayer", "config": {"batch_input_shape": [null, 1], "dtype": "float32", "sparse": false, "ragged": false, "name": "Bathrobes"}, "name": "Bathrobes", "inbound_nodes": []}, {"class_name": "InputLayer", "config": {"batch_input_shape": [null, 1], "dtype": "float32", "sparse": false, "ragged": false, "name": "Bathroom_Amenities"}, "name": "Bathroom_Amenities", "inbound_nodes": []}, {"class_name": "InputLayer", "config": {"batch_input_shape": [null, 1], "dtype": "float32", "sparse": false, "ragged": false, "name": "Bathtub"}, "name": "Bathtub", "inbound_nodes": []}, {"class_name": "InputLayer", "config": {"batch_input_shape": [null, 1], "dtype": "float32", "sparse": false, "ragged": false, "name": "Bathtub_Only"}, "name": "Bathtub_Only", "inbound_nodes": []}, {"class_name": "InputLayer", "config": {"batch_input_shape": [null, 1], "dtype": "float32", "sparse": false, "ragged": false, "name": "Bedside_Table"}, "name": "Bedside_Table", "inbound_nodes": []}, {"class_name": "InputLayer", "config": {"batch_input_shape": [null, 1], "dtype": "float32", "sparse": false, "ragged": false, "name": "Bidet"}, "name": "Bidet", "inbound_nodes": []}, {"class_name": "InputLayer", "config": {"batch_input_shape": [null, 1], "dtype": "float32", "sparse": false, "ragged": false, "name": "Blackout_Drapes"}, "name": "Blackout_Drapes", "inbound_nodes": []}, {"class_name": "InputLayer", "config": {"batch_input_shape": [null, 1], "dtype": "float32", "sparse": false, "ragged": false, "name": "Breakfast_Available"}, "name": "Breakfast_Available", "inbound_nodes": []}, {"class_name": "InputLayer", "config": {"batch_input_shape": [null, 1], "dtype": "float32", "sparse": false, "ragged": false, "name": "Breakfast_chargeable"}, "name": "Breakfast_chargeable", "inbound_nodes": []}, {"class_name": "InputLayer", "config": {"batch_input_shape": [null, 1], "dtype": "float32", "sparse": false, "ragged": false, "name": "Ceiling_Fan"}, "name": "Ceiling_Fan", "inbound_nodes": []}, {"class_name": "InputLayer", "config": {"batch_input_shape": [null, 1], "dtype": "float32", "sparse": false, "ragged": false, "name": "Centrally_Heated"}, "name": "Centrally_Heated", "inbound_nodes": []}, {"class_name": "InputLayer", "config": {"batch_input_shape": [null, 1], "dtype": "float32", "sparse": false, "ragged": false, "name": "Channel_Music"}, "name": "Channel_Music", "inbound_nodes": []}, {"class_name": "InputLayer", "config": {"batch_input_shape": [null, 1], "dtype": "float32", "sparse": false, "ragged": false, "name": "Climate_Control"}, "name": "Climate_Control", "inbound_nodes": []}, {"class_name": "InputLayer", "config": {"batch_input_shape": [null, 1], "dtype": "float32", "sparse": false, "ragged": false, "name": "Closet"}, "name": "Closet", "inbound_nodes": []}, {"class_name": "InputLayer", "config": {"batch_input_shape": [null, 1], "dtype": "float32", "sparse": false, "ragged": false, "name": "Clothes_Dryer"}, "name": "Clothes_Dryer", "inbound_nodes": []}, {"class_name": "InputLayer", "config": {"batch_input_shape": [null, 1], "dtype": "float32", "sparse": false, "ragged": false, "name": "Clothes_Hook_in_Bathroom"}, "name": "Clothes_Hook_in_Bathroom", "inbound_nodes": []}, {"class_name": "InputLayer", "config": {"batch_input_shape": [null, 1], "dtype": "float32", "sparse": false, "ragged": false, "name": "Coffee_Table"}, "name": "Coffee_Table", "inbound_nodes": []}, {"class_name": "InputLayer", "config": {"batch_input_shape": [null, 1], "dtype": "float32", "sparse": false, "ragged": false, "name": "Complete_Bedding"}, "name": "Complete_Bedding", "inbound_nodes": []}, {"class_name": "InputLayer", "config": {"batch_input_shape": [null, 1], "dtype": "float32", "sparse": false, "ragged": false, "name": "Complimentary_Use_of_Bicycle"}, "name": "Complimentary_Use_of_Bicycle", "inbound_nodes": []}, {"class_name": "InputLayer", "config": {"batch_input_shape": [null, 1], "dtype": "float32", "sparse": false, "ragged": false, "name": "Computer"}, "name": "Computer", "inbound_nodes": []}, {"class_name": "InputLayer", "config": {"batch_input_shape": [null, 1], "dtype": "float32", "sparse": false, "ragged": false, "name": "Cribs_Available"}, "name": "Cribs_Available", "inbound_nodes": []}, {"class_name": "InputLayer", "config": {"batch_input_shape": [null, 1], "dtype": "float32", "sparse": false, "ragged": false, "name": "Crockery__Cutlery"}, "name": "Crockery__Cutlery", "inbound_nodes": []}, {"class_name": "InputLayer", "config": {"batch_input_shape": [null, 1], "dtype": "float32", "sparse": false, "ragged": false, "name": "CurtainsShades"}, "name": "CurtainsShades", "inbound_nodes": []}, {"class_name": "InputLayer", "config": {"batch_input_shape": [null, 1], "dtype": "float32", "sparse": false, "ragged": false, "name": "Daily_Room_Cleaning"}, "name": "Daily_Room_Cleaning", "inbound_nodes": []}, {"class_name": "InputLayer", "config": {"batch_input_shape": [null, 1], "dtype": "float32", "sparse": false, "ragged": false, "name": "Desk"}, "name": "Desk", "inbound_nodes": []}, {"class_name": "InputLayer", "config": {"batch_input_shape": [null, 1], "dtype": "float32", "sparse": false, "ragged": false, "name": "Direct_Dial_Phone"}, "name": "Direct_Dial_Phone", "inbound_nodes": []}, {"class_name": "InputLayer", "config": {"batch_input_shape": [null, 1], "dtype": "float32", "sparse": false, "ragged": false, "name": "Disabled_Friendly_Bathrooms"}, "name": "Disabled_Friendly_Bathrooms", "inbound_nodes": []}, {"class_name": "InputLayer", "config": {"batch_input_shape": [null, 1], "dtype": "float32", "sparse": false, "ragged": false, "name": "Do-Not-Disturb_Notice"}, "name": "Do-Not-Disturb_Notice", "inbound_nodes": []}, {"class_name": "InputLayer", "config": {"batch_input_shape": [null, 1], "dtype": "float32", "sparse": false, "ragged": false, "name": "Dressing_Area"}, "name": "Dressing_Area", "inbound_nodes": []}, {"class_name": "InputLayer", "config": {"batch_input_shape": [null, 1], "dtype": "float32", "sparse": false, "ragged": false, "name": "Dustbins"}, "name": "Dustbins", "inbound_nodes": []}, {"class_name": "InputLayer", "config": {"batch_input_shape": [null, 1], "dtype": "float32", "sparse": false, "ragged": false, "name": "Ensuite__Private_Bathroom"}, "name": "Ensuite__Private_Bathroom", "inbound_nodes": []}, {"class_name": "InputLayer", "config": {"batch_input_shape": [null, 1], "dtype": "float32", "sparse": false, "ragged": false, "name": "Extra_Bed__Towels__Linens__Bedding_on_request"}, "name": "Extra_Bed__Towels__Linens__Bedding_on_request", "inbound_nodes": []}, {"class_name": "InputLayer", "config": {"batch_input_shape": [null, 1], "dtype": "float32", "sparse": false, "ragged": false, "name": "Extra_Toilteries_on_Demand"}, "name": "Extra_Toilteries_on_Demand", "inbound_nodes": []}, {"class_name": "InputLayer", "config": {"batch_input_shape": [null, 1], "dtype": "float32", "sparse": false, "ragged": false, "name": "Full_Kitchen"}, "name": "Full_Kitchen", "inbound_nodes": []}, {"class_name": "InputLayer", "config": {"batch_input_shape": [null, 1], "dtype": "float32", "sparse": false, "ragged": false, "name": "Gas_Cylinder_-_Chargeable"}, "name": "Gas_Cylinder_-_Chargeable", "inbound_nodes": []}, {"class_name": "InputLayer", "config": {"batch_input_shape": [null, 1], "dtype": "float32", "sparse": false, "ragged": false, "name": "HD__LCD_Satellite_TV"}, "name": "HD__LCD_Satellite_TV", "inbound_nodes": []}, {"class_name": "InputLayer", "config": {"batch_input_shape": [null, 1], "dtype": "float32", "sparse": false, "ragged": false, "name": "Hairdryer"}, "name": "Hairdryer", "inbound_nodes": []}, {"class_name": "InputLayer", "config": {"batch_input_shape": [null, 1], "dtype": "float32", "sparse": false, "ragged": false, "name": "Handicapped_Facilities"}, "name": "Handicapped_Facilities", "inbound_nodes": []}, {"class_name": "InputLayer", "config": {"batch_input_shape": [null, 1], "dtype": "float32", "sparse": false, "ragged": false, "name": "Hill_View_from_all_Rooms"}, "name": "Hill_View_from_all_Rooms", "inbound_nodes": []}, {"class_name": "InputLayer", "config": {"batch_input_shape": [null, 1], "dtype": "float32", "sparse": false, "ragged": false, "name": "Hot__Cold_Running_Water"}, "name": "Hot__Cold_Running_Water", "inbound_nodes": []}, {"class_name": "InputLayer", "config": {"batch_input_shape": [null, 1], "dtype": "float32", "sparse": false, "ragged": false, "name": "Housekeeping"}, "name": "Housekeeping", "inbound_nodes": []}, {"class_name": "InputLayer", "config": {"batch_input_shape": [null, 1], "dtype": "float32", "sparse": false, "ragged": false, "name": "Ice_Bucket_on_Demand"}, "name": "Ice_Bucket_on_Demand", "inbound_nodes": []}, {"class_name": "InputLayer", "config": {"batch_input_shape": [null, 1], "dtype": "float32", "sparse": false, "ragged": false, "name": "In-room_Storage_Space"}, "name": "In-room_Storage_Space", "inbound_nodes": []}, {"class_name": "InputLayer", "config": {"batch_input_shape": [null, 1], "dtype": "float32", "sparse": false, "ragged": false, "name": "Induction_Plate"}, "name": "Induction_Plate", "inbound_nodes": []}, {"class_name": "InputLayer", "config": {"batch_input_shape": [null, 1], "dtype": "float32", "sparse": false, "ragged": false, "name": "International_Switch_Plugs_on_request"}, "name": "International_Switch_Plugs_on_request", "inbound_nodes": []}, {"class_name": "InputLayer", "config": {"batch_input_shape": [null, 1], "dtype": "float32", "sparse": false, "ragged": false, "name": "Kitchenette"}, "name": "Kitchenette", "inbound_nodes": []}, {"class_name": "InputLayer", "config": {"batch_input_shape": [null, 1], "dtype": "float32", "sparse": false, "ragged": false, "name": "Luggage_Rack"}, "name": "Luggage_Rack", "inbound_nodes": []}, {"class_name": "InputLayer", "config": {"batch_input_shape": [null, 1], "dtype": "float32", "sparse": false, "ragged": false, "name": "Mineral_Water"}, "name": "Mineral_Water", "inbound_nodes": []}, {"class_name": "InputLayer", "config": {"batch_input_shape": [null, 1], "dtype": "float32", "sparse": false, "ragged": false, "name": "Mini_Bar"}, "name": "Mini_Bar", "inbound_nodes": []}, {"class_name": "InputLayer", "config": {"batch_input_shape": [null, 1], "dtype": "float32", "sparse": false, "ragged": false, "name": "Mini_Refrigerator"}, "name": "Mini_Refrigerator", "inbound_nodes": []}, {"class_name": "InputLayer", "config": {"batch_input_shape": [null, 1], "dtype": "float32", "sparse": false, "ragged": false, "name": "Mirror"}, "name": "Mirror", "inbound_nodes": []}, {"class_name": "InputLayer", "config": {"batch_input_shape": [null, 1], "dtype": "float32", "sparse": false, "ragged": false, "name": "Modern_Toilet_Facilities"}, "name": "Modern_Toilet_Facilities", "inbound_nodes": []}, {"class_name": "InputLayer", "config": {"batch_input_shape": [null, 1], "dtype": "float32", "sparse": false, "ragged": false, "name": "Movie_Channels"}, "name": "Movie_Channels", "inbound_nodes": []}, {"class_name": "InputLayer", "config": {"batch_input_shape": [null, 1], "dtype": "float32", "sparse": false, "ragged": false, "name": "Movies_-_Games_on_demand"}, "name": "Movies_-_Games_on_demand", "inbound_nodes": []}, {"class_name": "InputLayer", "config": {"batch_input_shape": [null, 1], "dtype": "float32", "sparse": false, "ragged": false, "name": "Newspapers"}, "name": "Newspapers", "inbound_nodes": []}, {"class_name": "InputLayer", "config": {"batch_input_shape": [null, 1], "dtype": "float32", "sparse": false, "ragged": false, "name": "No_Smoking_Room"}, "name": "No_Smoking_Room", "inbound_nodes": []}, {"class_name": "InputLayer", "config": {"batch_input_shape": [null, 1], "dtype": "float32", "sparse": false, "ragged": false, "name": "Patio_-_Property"}, "name": "Patio_-_Property", "inbound_nodes": []}, {"class_name": "InputLayer", "config": {"batch_input_shape": [null, 1], "dtype": "float32", "sparse": false, "ragged": false, "name": "Phone_Messaging_Services"}, "name": "Phone_Messaging_Services", "inbound_nodes": []}, {"class_name": "InputLayer", "config": {"batch_input_shape": [null, 1], "dtype": "float32", "sparse": false, "ragged": false, "name": "Pillow_menu"}, "name": "Pillow_menu", "inbound_nodes": []}, {"class_name": "InputLayer", "config": {"batch_input_shape": [null, 1], "dtype": "float32", "sparse": false, "ragged": false, "name": "Premium_Amenities__Toiletries"}, "name": "Premium_Amenities__Toiletries", "inbound_nodes": []}, {"class_name": "InputLayer", "config": {"batch_input_shape": [null, 1], "dtype": "float32", "sparse": false, "ragged": false, "name": "Premium_Beddings__Hypo-Allergenic_"}, "name": "Premium_Beddings__Hypo-Allergenic_", "inbound_nodes": []}, {"class_name": "InputLayer", "config": {"batch_input_shape": [null, 1], "dtype": "float32", "sparse": false, "ragged": false, "name": "Primium_Bathrooms"}, "name": "Primium_Bathrooms", "inbound_nodes": []}, {"class_name": "InputLayer", "config": {"batch_input_shape": [null, 1], "dtype": "float32", "sparse": false, "ragged": false, "name": "Private_Garden"}, "name": "Private_Garden", "inbound_nodes": []}, {"class_name": "InputLayer", "config": {"batch_input_shape": [null, 1], "dtype": "float32", "sparse": false, "ragged": false, "name": "Radio"}, "name": "Radio", "inbound_nodes": []}, {"class_name": "InputLayer", "config": {"batch_input_shape": [null, 1], "dtype": "float32", "sparse": false, "ragged": false, "name": "Reading_Lamps"}, "name": "Reading_Lamps", "inbound_nodes": []}, {"class_name": "InputLayer", "config": {"batch_input_shape": [null, 1], "dtype": "float32", "sparse": false, "ragged": false, "name": "Remote_Control_TV"}, "name": "Remote_Control_TV", "inbound_nodes": []}, {"class_name": "InputLayer", "config": {"batch_input_shape": [null, 1], "dtype": "float32", "sparse": false, "ragged": false, "name": "Remote_Controlled_Lights_and_Fan"}, "name": "Remote_Controlled_Lights_and_Fan", "inbound_nodes": []}, {"class_name": "InputLayer", "config": {"batch_input_shape": [null, 1], "dtype": "float32", "sparse": false, "ragged": false, "name": "Rollaway_Beds"}, "name": "Rollaway_Beds", "inbound_nodes": []}, {"class_name": "InputLayer", "config": {"batch_input_shape": [null, 1], "dtype": "float32", "sparse": false, "ragged": false, "name": "Room_Door_Fitted_with_Lock_and_Key"}, "name": "Room_Door_Fitted_with_Lock_and_Key", "inbound_nodes": []}, {"class_name": "InputLayer", "config": {"batch_input_shape": [null, 1], "dtype": "float32", "sparse": false, "ragged": false, "name": "Safe_on_request"}, "name": "Safe_on_request", "inbound_nodes": []}, {"class_name": "InputLayer", "config": {"batch_input_shape": [null, 1], "dtype": "float32", "sparse": false, "ragged": false, "name": "Sanitary_Bin"}, "name": "Sanitary_Bin", "inbound_nodes": []}, {"class_name": "InputLayer", "config": {"batch_input_shape": [null, 1], "dtype": "float32", "sparse": false, "ragged": false, "name": "Second_Bathrooms"}, "name": "Second_Bathrooms", "inbound_nodes": []}, {"class_name": "InputLayer", "config": {"batch_input_shape": [null, 1], "dtype": "float32", "sparse": false, "ragged": false, "name": "Separate_Bathtubs_And_Shower"}, "name": "Separate_Bathtubs_And_Shower", "inbound_nodes": []}, {"class_name": "InputLayer", "config": {"batch_input_shape": [null, 1], "dtype": "float32", "sparse": false, "ragged": false, "name": "Shared_Bathroom"}, "name": "Shared_Bathroom", "inbound_nodes": []}, {"class_name": "InputLayer", "config": {"batch_input_shape": [null, 1], "dtype": "float32", "sparse": false, "ragged": false, "name": "Shower"}, "name": "Shower", "inbound_nodes": []}, {"class_name": "InputLayer", "config": {"batch_input_shape": [null, 1], "dtype": "float32", "sparse": false, "ragged": false, "name": "Shower_Cap"}, "name": "Shower_Cap", "inbound_nodes": []}, {"class_name": "InputLayer", "config": {"batch_input_shape": [null, 1], "dtype": "float32", "sparse": false, "ragged": false, "name": "Slippers"}, "name": "Slippers", "inbound_nodes": []}, {"class_name": "InputLayer", "config": {"batch_input_shape": [null, 1], "dtype": "float32", "sparse": false, "ragged": false, "name": "Snacks__Beverage"}, "name": "Snacks__Beverage", "inbound_nodes": []}, {"class_name": "InputLayer", "config": {"batch_input_shape": [null, 1], "dtype": "float32", "sparse": false, "ragged": false, "name": "Sofa_Cum_Bed_Available"}, "name": "Sofa_Cum_Bed_Available", "inbound_nodes": []}, {"class_name": "InputLayer", "config": {"batch_input_shape": [null, 1], "dtype": "float32", "sparse": false, "ragged": false, "name": "Sofa_Table__Extra_Seats"}, "name": "Sofa_Table__Extra_Seats", "inbound_nodes": []}, {"class_name": "InputLayer", "config": {"batch_input_shape": [null, 1], "dtype": "float32", "sparse": false, "ragged": false, "name": "Soft_Bar"}, "name": "Soft_Bar", "inbound_nodes": []}, {"class_name": "InputLayer", "config": {"batch_input_shape": [null, 1], "dtype": "float32", "sparse": false, "ragged": false, "name": "Soundproof_Windows"}, "name": "Soundproof_Windows", "inbound_nodes": []}, {"class_name": "InputLayer", "config": {"batch_input_shape": [null, 1], "dtype": "float32", "sparse": false, "ragged": false, "name": "Split_A.C_s"}, "name": "Split_A.C_s", "inbound_nodes": []}, {"class_name": "InputLayer", "config": {"batch_input_shape": [null, 1], "dtype": "float32", "sparse": false, "ragged": false, "name": "Studio_Apartment_-_Large"}, "name": "Studio_Apartment_-_Large", "inbound_nodes": []}, {"class_name": "InputLayer", "config": {"batch_input_shape": [null, 1], "dtype": "float32", "sparse": false, "ragged": false, "name": "Tea_Coffee_Kettle__Maker"}, "name": "Tea_Coffee_Kettle__Maker", "inbound_nodes": []}, {"class_name": "InputLayer", "config": {"batch_input_shape": [null, 1], "dtype": "float32", "sparse": false, "ragged": false, "name": "Telephone"}, "name": "Telephone", "inbound_nodes": []}, {"class_name": "InputLayer", "config": {"batch_input_shape": [null, 1], "dtype": "float32", "sparse": false, "ragged": false, "name": "Television"}, "name": "Television", "inbound_nodes": []}, {"class_name": "InputLayer", "config": {"batch_input_shape": [null, 1], "dtype": "float32", "sparse": false, "ragged": false, "name": "Toaster"}, "name": "Toaster", "inbound_nodes": []}, {"class_name": "InputLayer", "config": {"batch_input_shape": [null, 1], "dtype": "float32", "sparse": false, "ragged": false, "name": "Toiletries"}, "name": "Toiletries", "inbound_nodes": []}, {"class_name": "InputLayer", "config": {"batch_input_shape": [null, 1], "dtype": "float32", "sparse": false, "ragged": false, "name": "Utensils_on_request"}, "name": "Utensils_on_request", "inbound_nodes": []}, {"class_name": "InputLayer", "config": {"batch_input_shape": [null, 1], "dtype": "float32", "sparse": false, "ragged": false, "name": "Video_DVD_CD_Player_Available"}, "name": "Video_DVD_CD_Player_Available", "inbound_nodes": []}, {"class_name": "InputLayer", "config": {"batch_input_shape": [null, 1], "dtype": "float32", "sparse": false, "ragged": false, "name": "Wardrobe"}, "name": "Wardrobe", "inbound_nodes": []}, {"class_name": "InputLayer", "config": {"batch_input_shape": [null, 1], "dtype": "float32", "sparse": false, "ragged": false, "name": "Washing_machine"}, "name": "Washing_machine", "inbound_nodes": []}, {"class_name": "InputLayer", "config": {"batch_input_shape": [null, 1], "dtype": "float32", "sparse": false, "ragged": false, "name": "Western_Toilet_Seat"}, "name": "Western_Toilet_Seat", "inbound_nodes": []}, {"class_name": "InputLayer", "config": {"batch_input_shape": [null, 1], "dtype": "float32", "sparse": false, "ragged": false, "name": "Work_Station"}, "name": "Work_Station", "inbound_nodes": []}, {"class_name": "InputLayer", "config": {"batch_input_shape": [null, 1], "dtype": "float32", "sparse": false, "ragged": false, "name": "Heating_Facility_on_Request"}, "name": "Heating_Facility_on_Request", "inbound_nodes": []}, {"class_name": "InputLayer", "config": {"batch_input_shape": [null, 1], "dtype": "float32", "sparse": false, "ragged": false, "name": "Safe"}, "name": "Safe", "inbound_nodes": []}, {"class_name": "InputLayer", "config": {"batch_input_shape": [null, 1], "dtype": "float32", "sparse": false, "ragged": false, "name": "Iron__Ironing_board"}, "name": "Iron__Ironing_board", "inbound_nodes": []}, {"class_name": "InputLayer", "config": {"batch_input_shape": [null, 1], "dtype": "float32", "sparse": false, "ragged": false, "name": "Microwave__Oven"}, "name": "Microwave__Oven", "inbound_nodes": []}, {"class_name": "InputLayer", "config": {"batch_input_shape": [null, 1], "dtype": "float32", "sparse": false, "ragged": false, "name": "Window_Open__Ventilation"}, "name": "Window_Open__Ventilation", "inbound_nodes": []}, {"class_name": "InputLayer", "config": {"batch_input_shape": [null, 1], "dtype": "float32", "sparse": false, "ragged": false, "name": "Outdoor_Parking"}, "name": "Outdoor_Parking", "inbound_nodes": []}, {"class_name": "InputLayer", "config": {"batch_input_shape": [null, 1], "dtype": "float32", "sparse": false, "ragged": false, "name": "Porter_Services"}, "name": "Porter_Services", "inbound_nodes": []}, {"class_name": "InputLayer", "config": {"batch_input_shape": [null, 1], "dtype": "float32", "sparse": false, "ragged": false, "name": "Spa_Services"}, "name": "Spa_Services", "inbound_nodes": []}, {"class_name": "InputLayer", "config": {"batch_input_shape": [null, 1], "dtype": "float32", "sparse": false, "ragged": false, "name": "Poolside_Cafe"}, "name": "Poolside_Cafe", "inbound_nodes": []}, {"class_name": "InputLayer", "config": {"batch_input_shape": [null, 1], "dtype": "float32", "sparse": false, "ragged": false, "name": "Airport_Transfer"}, "name": "Airport_Transfer", "inbound_nodes": []}, {"class_name": "Embedding", "config": {"name": "embedding_270", "trainable": true, "batch_input_shape": [null, null], "dtype": "float32", "input_dim": 2, "output_dim": 271, "embeddings_initializer": {"class_name": "RandomUniform", "config": {"minval": -0.05, "maxval": 0.05, "seed": null}}, "embeddings_regularizer": {"class_name": "L2", "config": {"l2": 0.699999988079071}}, "activity_regularizer": null, "embeddings_constraint": null, "mask_zero": false, "input_length": null}, "name": "embedding_270", "inbound_nodes": [[["Beach_Hut", 0, 0, {}]]]}, {"class_name": "Embedding", "config": {"name": "embedding_271", "trainable": true, "batch_input_shape": [null, null], "dtype": "float32", "input_dim": 2, "output_dim": 271, "embeddings_initializer": {"class_name": "RandomUniform", "config": {"minval": -0.05, "maxval": 0.05, "seed": null}}, "embeddings_regularizer": {"class_name": "L2", "config": {"l2": 0.699999988079071}}, "activity_regularizer": null, "embeddings_constraint": null, "mask_zero": false, "input_length": null}, "name": "embedding_271", "inbound_nodes": [[["BnB", 0, 0, {}]]]}, {"class_name": "Embedding", "config": {"name": "embedding_272", "trainable": true, "batch_input_shape": [null, null], "dtype": "float32", "input_dim": 2, "output_dim": 271, "embeddings_initializer": {"class_name": "RandomUniform", "config": {"minval": -0.05, "maxval": 0.05, "seed": null}}, "embeddings_regularizer": {"class_name": "L2", "config": {"l2": 0.699999988079071}}, "activity_regularizer": null, "embeddings_constraint": null, "mask_zero": false, "input_length": null}, "name": "embedding_272", "inbound_nodes": [[["Bungalow", 0, 0, {}]]]}, {"class_name": "Embedding", "config": {"name": "embedding_273", "trainable": true, "batch_input_shape": [null, null], "dtype": "float32", "input_dim": 2, "output_dim": 271, "embeddings_initializer": {"class_name": "RandomUniform", "config": {"minval": -0.05, "maxval": 0.05, "seed": null}}, "embeddings_regularizer": {"class_name": "L2", "config": {"l2": 0.699999988079071}}, "activity_regularizer": null, "embeddings_constraint": null, "mask_zero": false, "input_length": null}, "name": "embedding_273", "inbound_nodes": [[["Cottage", 0, 0, {}]]]}, {"class_name": "Embedding", "config": {"name": "embedding_274", "trainable": true, "batch_input_shape": [null, null], "dtype": "float32", "input_dim": 2, "output_dim": 271, "embeddings_initializer": {"class_name": "RandomUniform", "config": {"minval": -0.05, "maxval": 0.05, "seed": null}}, "embeddings_regularizer": {"class_name": "L2", "config": {"l2": 0.699999988079071}}, "activity_regularizer": null, "embeddings_constraint": null, "mask_zero": false, "input_length": null}, "name": "embedding_274", "inbound_nodes": [[["Farm_Stay", 0, 0, {}]]]}, {"class_name": "Embedding", "config": {"name": "embedding_275", "trainable": true, "batch_input_shape": [null, null], "dtype": "float32", "input_dim": 2, "output_dim": 271, "embeddings_initializer": {"class_name": "RandomUniform", "config": {"minval": -0.05, "maxval": 0.05, "seed": null}}, "embeddings_regularizer": {"class_name": "L2", "config": {"l2": 0.699999988079071}}, "activity_regularizer": null, "embeddings_constraint": null, "mask_zero": false, "input_length": null}, "name": "embedding_275", "inbound_nodes": [[["Guest_House", 0, 0, {}]]]}, {"class_name": "Embedding", "config": {"name": "embedding_276", "trainable": true, "batch_input_shape": [null, null], "dtype": "float32", "input_dim": 2, "output_dim": 271, "embeddings_initializer": {"class_name": "RandomUniform", "config": {"minval": -0.05, "maxval": 0.05, "seed": null}}, "embeddings_regularizer": {"class_name": "L2", "config": {"l2": 0.699999988079071}}, "activity_regularizer": null, "embeddings_constraint": null, "mask_zero": false, "input_length": null}, "name": "embedding_276", "inbound_nodes": [[["Homestay", 0, 0, {}]]]}, {"class_name": "Embedding", "config": {"name": "embedding_277", "trainable": true, "batch_input_shape": [null, null], "dtype": "float32", "input_dim": 2, "output_dim": 271, "embeddings_initializer": {"class_name": "RandomUniform", "config": {"minval": -0.05, "maxval": 0.05, "seed": null}}, "embeddings_regularizer": {"class_name": "L2", "config": {"l2": 0.699999988079071}}, "activity_regularizer": null, "embeddings_constraint": null, "mask_zero": false, "input_length": null}, "name": "embedding_277", "inbound_nodes": [[["Hostel", 0, 0, {}]]]}, {"class_name": "Embedding", "config": {"name": "embedding_278", "trainable": true, "batch_input_shape": [null, null], "dtype": "float32", "input_dim": 2, "output_dim": 271, "embeddings_initializer": {"class_name": "RandomUniform", "config": {"minval": -0.05, "maxval": 0.05, "seed": null}}, "embeddings_regularizer": {"class_name": "L2", "config": {"l2": 0.699999988079071}}, "activity_regularizer": null, "embeddings_constraint": null, "mask_zero": false, "input_length": null}, "name": "embedding_278", "inbound_nodes": [[["Hotel", 0, 0, {}]]]}, {"class_name": "Embedding", "config": {"name": "embedding_279", "trainable": true, "batch_input_shape": [null, null], "dtype": "float32", "input_dim": 2, "output_dim": 271, "embeddings_initializer": {"class_name": "RandomUniform", "config": {"minval": -0.05, "maxval": 0.05, "seed": null}}, "embeddings_regularizer": {"class_name": "L2", "config": {"l2": 0.699999988079071}}, "activity_regularizer": null, "embeddings_constraint": null, "mask_zero": false, "input_length": null}, "name": "embedding_279", "inbound_nodes": [[["Houseboat", 0, 0, {}]]]}, {"class_name": "Embedding", "config": {"name": "embedding_280", "trainable": true, "batch_input_shape": [null, null], "dtype": "float32", "input_dim": 2, "output_dim": 271, "embeddings_initializer": {"class_name": "RandomUniform", "config": {"minval": -0.05, "maxval": 0.05, "seed": null}}, "embeddings_regularizer": {"class_name": "L2", "config": {"l2": 0.699999988079071}}, "activity_regularizer": null, "embeddings_constraint": null, "mask_zero": false, "input_length": null}, "name": "embedding_280", "inbound_nodes": [[["Lodge", 0, 0, {}]]]}, {"class_name": "Embedding", "config": {"name": "embedding_281", "trainable": true, "batch_input_shape": [null, null], "dtype": "float32", "input_dim": 2, "output_dim": 271, "embeddings_initializer": {"class_name": "RandomUniform", "config": {"minval": -0.05, "maxval": 0.05, "seed": null}}, "embeddings_regularizer": {"class_name": "L2", "config": {"l2": 0.699999988079071}}, "activity_regularizer": null, "embeddings_constraint": null, "mask_zero": false, "input_length": null}, "name": "embedding_281", "inbound_nodes": [[["Motel", 0, 0, {}]]]}, {"class_name": "Embedding", "config": {"name": "embedding_282", "trainable": true, "batch_input_shape": [null, null], "dtype": "float32", "input_dim": 2, "output_dim": 271, "embeddings_initializer": {"class_name": "RandomUniform", "config": {"minval": -0.05, "maxval": 0.05, "seed": null}}, "embeddings_regularizer": {"class_name": "L2", "config": {"l2": 0.699999988079071}}, "activity_regularizer": null, "embeddings_constraint": null, "mask_zero": false, "input_length": null}, "name": "embedding_282", "inbound_nodes": [[["Palace", 0, 0, {}]]]}, {"class_name": "Embedding", "config": {"name": "embedding_283", "trainable": true, "batch_input_shape": [null, null], "dtype": "float32", "input_dim": 2, "output_dim": 271, "embeddings_initializer": {"class_name": "RandomUniform", "config": {"minval": -0.05, "maxval": 0.05, "seed": null}}, "embeddings_regularizer": {"class_name": "L2", "config": {"l2": 0.699999988079071}}, "activity_regularizer": null, "embeddings_constraint": null, "mask_zero": false, "input_length": null}, "name": "embedding_283", "inbound_nodes": [[["Resort", 0, 0, {}]]]}, {"class_name": "Embedding", "config": {"name": "embedding_284", "trainable": true, "batch_input_shape": [null, null], "dtype": "float32", "input_dim": 2, "output_dim": 271, "embeddings_initializer": {"class_name": "RandomUniform", "config": {"minval": -0.05, "maxval": 0.05, "seed": null}}, "embeddings_regularizer": {"class_name": "L2", "config": {"l2": 0.699999988079071}}, "activity_regularizer": null, "embeddings_constraint": null, "mask_zero": false, "input_length": null}, "name": "embedding_284", "inbound_nodes": [[["Service_Apartment", 0, 0, {}]]]}, {"class_name": "Embedding", "config": {"name": "embedding_285", "trainable": true, "batch_input_shape": [null, null], "dtype": "float32", "input_dim": 2, "output_dim": 271, "embeddings_initializer": {"class_name": "RandomUniform", "config": {"minval": -0.05, "maxval": 0.05, "seed": null}}, "embeddings_regularizer": {"class_name": "L2", "config": {"l2": 0.699999988079071}}, "activity_regularizer": null, "embeddings_constraint": null, "mask_zero": false, "input_length": null}, "name": "embedding_285", "inbound_nodes": [[["Tent", 0, 0, {}]]]}, {"class_name": "Embedding", "config": {"name": "embedding_286", "trainable": true, "batch_input_shape": [null, null], "dtype": "float32", "input_dim": 2, "output_dim": 271, "embeddings_initializer": {"class_name": "RandomUniform", "config": {"minval": -0.05, "maxval": 0.05, "seed": null}}, "embeddings_regularizer": {"class_name": "L2", "config": {"l2": 0.699999988079071}}, "activity_regularizer": null, "embeddings_constraint": null, "mask_zero": false, "input_length": null}, "name": "embedding_286", "inbound_nodes": [[["Villa", 0, 0, {}]]]}, {"class_name": "Embedding", "config": {"name": "embedding_287", "trainable": true, "batch_input_shape": [null, null], "dtype": "float32", "input_dim": 2, "output_dim": 271, "embeddings_initializer": {"class_name": "RandomUniform", "config": {"minval": -0.05, "maxval": 0.05, "seed": null}}, "embeddings_regularizer": {"class_name": "L2", "config": {"l2": 0.699999988079071}}, "activity_regularizer": null, "embeddings_constraint": null, "mask_zero": false, "input_length": null}, "name": "embedding_287", "inbound_nodes": [[["_Bike_on_Rent", 0, 0, {}]]]}, {"class_name": "Embedding", "config": {"name": "embedding_288", "trainable": true, "batch_input_shape": [null, null], "dtype": "float32", "input_dim": 2, "output_dim": 271, "embeddings_initializer": {"class_name": "RandomUniform", "config": {"minval": -0.05, "maxval": 0.05, "seed": null}}, "embeddings_regularizer": {"class_name": "L2", "config": {"l2": 0.699999988079071}}, "activity_regularizer": null, "embeddings_constraint": null, "mask_zero": false, "input_length": null}, "name": "embedding_288", "inbound_nodes": [[["_Drivers_Rest_Room", 0, 0, {}]]]}, {"class_name": "Embedding", "config": {"name": "embedding_289", "trainable": true, "batch_input_shape": [null, null], "dtype": "float32", "input_dim": 2, "output_dim": 271, "embeddings_initializer": {"class_name": "RandomUniform", "config": {"minval": -0.05, "maxval": 0.05, "seed": null}}, "embeddings_regularizer": {"class_name": "L2", "config": {"l2": 0.699999988079071}}, "activity_regularizer": null, "embeddings_constraint": null, "mask_zero": false, "input_length": null}, "name": "embedding_289", "inbound_nodes": [[["ATM__Banking", 0, 0, {}]]]}, {"class_name": "Embedding", "config": {"name": "embedding_290", "trainable": true, "batch_input_shape": [null, null], "dtype": "float32", "input_dim": 2, "output_dim": 271, "embeddings_initializer": {"class_name": "RandomUniform", "config": {"minval": -0.05, "maxval": 0.05, "seed": null}}, "embeddings_regularizer": {"class_name": "L2", "config": {"l2": 0.699999988079071}}, "activity_regularizer": null, "embeddings_constraint": null, "mask_zero": false, "input_length": null}, "name": "embedding_290", "inbound_nodes": [[["Access_Via_Exterior_Corridors", 0, 0, {}]]]}, {"class_name": "Embedding", "config": {"name": "embedding_291", "trainable": true, "batch_input_shape": [null, null], "dtype": "float32", "input_dim": 2, "output_dim": 271, "embeddings_initializer": {"class_name": "RandomUniform", "config": {"minval": -0.05, "maxval": 0.05, "seed": null}}, "embeddings_regularizer": {"class_name": "L2", "config": {"l2": 0.699999988079071}}, "activity_regularizer": null, "embeddings_constraint": null, "mask_zero": false, "input_length": null}, "name": "embedding_291", "inbound_nodes": [[["Adjoining_Rooms", 0, 0, {}]]]}, {"class_name": "Embedding", "config": {"name": "embedding_292", "trainable": true, "batch_input_shape": [null, null], "dtype": "float32", "input_dim": 2, "output_dim": 271, "embeddings_initializer": {"class_name": "RandomUniform", "config": {"minval": -0.05, "maxval": 0.05, "seed": null}}, "embeddings_regularizer": {"class_name": "L2", "config": {"l2": 0.699999988079071}}, "activity_regularizer": null, "embeddings_constraint": null, "mask_zero": false, "input_length": null}, "name": "embedding_292", "inbound_nodes": [[["Air__Rail_Booking", 0, 0, {}]]]}, {"class_name": "Embedding", "config": {"name": "embedding_293", "trainable": true, "batch_input_shape": [null, null], "dtype": "float32", "input_dim": 2, "output_dim": 271, "embeddings_initializer": {"class_name": "RandomUniform", "config": {"minval": -0.05, "maxval": 0.05, "seed": null}}, "embeddings_regularizer": {"class_name": "L2", "config": {"l2": 0.699999988079071}}, "activity_regularizer": null, "embeddings_constraint": null, "mask_zero": false, "input_length": null}, "name": "embedding_293", "inbound_nodes": [[["Air-Conditioning_-_Central", 0, 0, {}]]]}, {"class_name": "Embedding", "config": {"name": "embedding_294", "trainable": true, "batch_input_shape": [null, null], "dtype": "float32", "input_dim": 2, "output_dim": 271, "embeddings_initializer": {"class_name": "RandomUniform", "config": {"minval": -0.05, "maxval": 0.05, "seed": null}}, "embeddings_regularizer": {"class_name": "L2", "config": {"l2": 0.699999988079071}}, "activity_regularizer": null, "embeddings_constraint": null, "mask_zero": false, "input_length": null}, "name": "embedding_294", "inbound_nodes": [[["Amphitheatre", 0, 0, {}]]]}, {"class_name": "Embedding", "config": {"name": "embedding_295", "trainable": true, "batch_input_shape": [null, null], "dtype": "float32", "input_dim": 2, "output_dim": 271, "embeddings_initializer": {"class_name": "RandomUniform", "config": {"minval": -0.05, "maxval": 0.05, "seed": null}}, "embeddings_regularizer": {"class_name": "L2", "config": {"l2": 0.699999988079071}}, "activity_regularizer": null, "embeddings_constraint": null, "mask_zero": false, "input_length": null}, "name": "embedding_295", "inbound_nodes": [[["Ayurvedic_Facilities_", 0, 0, {}]]]}, {"class_name": "Embedding", "config": {"name": "embedding_296", "trainable": true, "batch_input_shape": [null, null], "dtype": "float32", "input_dim": 2, "output_dim": 271, "embeddings_initializer": {"class_name": "RandomUniform", "config": {"minval": -0.05, "maxval": 0.05, "seed": null}}, "embeddings_regularizer": {"class_name": "L2", "config": {"l2": 0.699999988079071}}, "activity_regularizer": null, "embeddings_constraint": null, "mask_zero": false, "input_length": null}, "name": "embedding_296", "inbound_nodes": [[["Babysitting_Child_Care_surcharge", 0, 0, {}]]]}, {"class_name": "Embedding", "config": {"name": "embedding_297", "trainable": true, "batch_input_shape": [null, null], "dtype": "float32", "input_dim": 2, "output_dim": 271, "embeddings_initializer": {"class_name": "RandomUniform", "config": {"minval": -0.05, "maxval": 0.05, "seed": null}}, "embeddings_regularizer": {"class_name": "L2", "config": {"l2": 0.699999988079071}}, "activity_regularizer": null, "embeddings_constraint": null, "mask_zero": false, "input_length": null}, "name": "embedding_297", "inbound_nodes": [[["Badminttion_Court", 0, 0, {}]]]}, {"class_name": "Embedding", "config": {"name": "embedding_298", "trainable": true, "batch_input_shape": [null, null], "dtype": "float32", "input_dim": 2, "output_dim": 271, "embeddings_initializer": {"class_name": "RandomUniform", "config": {"minval": -0.05, "maxval": 0.05, "seed": null}}, "embeddings_regularizer": {"class_name": "L2", "config": {"l2": 0.699999988079071}}, "activity_regularizer": null, "embeddings_constraint": null, "mask_zero": false, "input_length": null}, "name": "embedding_298", "inbound_nodes": [[["Baggage_Room", 0, 0, {}]]]}, {"class_name": "Embedding", "config": {"name": "embedding_299", "trainable": true, "batch_input_shape": [null, null], "dtype": "float32", "input_dim": 2, "output_dim": 271, "embeddings_initializer": {"class_name": "RandomUniform", "config": {"minval": -0.05, "maxval": 0.05, "seed": null}}, "embeddings_regularizer": {"class_name": "L2", "config": {"l2": 0.699999988079071}}, "activity_regularizer": null, "embeddings_constraint": null, "mask_zero": false, "input_length": null}, "name": "embedding_299", "inbound_nodes": [[["Ballroom", 0, 0, {}]]]}, {"class_name": "Embedding", "config": {"name": "embedding_300", "trainable": true, "batch_input_shape": [null, null], "dtype": "float32", "input_dim": 2, "output_dim": 271, "embeddings_initializer": {"class_name": "RandomUniform", "config": {"minval": -0.05, "maxval": 0.05, "seed": null}}, "embeddings_regularizer": {"class_name": "L2", "config": {"l2": 0.699999988079071}}, "activity_regularizer": null, "embeddings_constraint": null, "mask_zero": false, "input_length": null}, "name": "embedding_300", "inbound_nodes": [[["Banquet_Facilities", 0, 0, {}]]]}, {"class_name": "Embedding", "config": {"name": "embedding_301", "trainable": true, "batch_input_shape": [null, null], "dtype": "float32", "input_dim": 2, "output_dim": 271, "embeddings_initializer": {"class_name": "RandomUniform", "config": {"minval": -0.05, "maxval": 0.05, "seed": null}}, "embeddings_regularizer": {"class_name": "L2", "config": {"l2": 0.699999988079071}}, "activity_regularizer": null, "embeddings_constraint": null, "mask_zero": false, "input_length": null}, "name": "embedding_301", "inbound_nodes": [[["Bar__Lounge_", 0, 0, {}]]]}, {"class_name": "Embedding", "config": {"name": "embedding_302", "trainable": true, "batch_input_shape": [null, null], "dtype": "float32", "input_dim": 2, "output_dim": 271, "embeddings_initializer": {"class_name": "RandomUniform", "config": {"minval": -0.05, "maxval": 0.05, "seed": null}}, "embeddings_regularizer": {"class_name": "L2", "config": {"l2": 0.699999988079071}}, "activity_regularizer": null, "embeddings_constraint": null, "mask_zero": false, "input_length": null}, "name": "embedding_302", "inbound_nodes": [[["Barbecue_Area", 0, 0, {}]]]}, {"class_name": "Embedding", "config": {"name": "embedding_303", "trainable": true, "batch_input_shape": [null, null], "dtype": "float32", "input_dim": 2, "output_dim": 271, "embeddings_initializer": {"class_name": "RandomUniform", "config": {"minval": -0.05, "maxval": 0.05, "seed": null}}, "embeddings_regularizer": {"class_name": "L2", "config": {"l2": 0.699999988079071}}, "activity_regularizer": null, "embeddings_constraint": null, "mask_zero": false, "input_length": null}, "name": "embedding_303", "inbound_nodes": [[["Basketball_Court_", 0, 0, {}]]]}, {"class_name": "Embedding", "config": {"name": "embedding_304", "trainable": true, "batch_input_shape": [null, null], "dtype": "float32", "input_dim": 2, "output_dim": 271, "embeddings_initializer": {"class_name": "RandomUniform", "config": {"minval": -0.05, "maxval": 0.05, "seed": null}}, "embeddings_regularizer": {"class_name": "L2", "config": {"l2": 0.699999988079071}}, "activity_regularizer": null, "embeddings_constraint": null, "mask_zero": false, "input_length": null}, "name": "embedding_304", "inbound_nodes": [[["Beauty_Salon_-_on_charge", 0, 0, {}]]]}, {"class_name": "Embedding", "config": {"name": "embedding_305", "trainable": true, "batch_input_shape": [null, null], "dtype": "float32", "input_dim": 2, "output_dim": 271, "embeddings_initializer": {"class_name": "RandomUniform", "config": {"minval": -0.05, "maxval": 0.05, "seed": null}}, "embeddings_regularizer": {"class_name": "L2", "config": {"l2": 0.699999988079071}}, "activity_regularizer": null, "embeddings_constraint": null, "mask_zero": false, "input_length": null}, "name": "embedding_305", "inbound_nodes": [[["Billiards", 0, 0, {}]]]}, {"class_name": "Embedding", "config": {"name": "embedding_306", "trainable": true, "batch_input_shape": [null, null], "dtype": "float32", "input_dim": 2, "output_dim": 271, "embeddings_initializer": {"class_name": "RandomUniform", "config": {"minval": -0.05, "maxval": 0.05, "seed": null}}, "embeddings_regularizer": {"class_name": "L2", "config": {"l2": 0.699999988079071}}, "activity_regularizer": null, "embeddings_constraint": null, "mask_zero": false, "input_length": null}, "name": "embedding_306", "inbound_nodes": [[["Board_Room", 0, 0, {}]]]}, {"class_name": "Embedding", "config": {"name": "embedding_307", "trainable": true, "batch_input_shape": [null, null], "dtype": "float32", "input_dim": 2, "output_dim": 271, "embeddings_initializer": {"class_name": "RandomUniform", "config": {"minval": -0.05, "maxval": 0.05, "seed": null}}, "embeddings_regularizer": {"class_name": "L2", "config": {"l2": 0.699999988079071}}, "activity_regularizer": null, "embeddings_constraint": null, "mask_zero": false, "input_length": null}, "name": "embedding_307", "inbound_nodes": [[["Bowling", 0, 0, {}]]]}, {"class_name": "Embedding", "config": {"name": "embedding_308", "trainable": true, "batch_input_shape": [null, null], "dtype": "float32", "input_dim": 2, "output_dim": 271, "embeddings_initializer": {"class_name": "RandomUniform", "config": {"minval": -0.05, "maxval": 0.05, "seed": null}}, "embeddings_regularizer": {"class_name": "L2", "config": {"l2": 0.699999988079071}}, "activity_regularizer": null, "embeddings_constraint": null, "mask_zero": false, "input_length": null}, "name": "embedding_308", "inbound_nodes": [[["Business_Center", 0, 0, {}]]]}, {"class_name": "Embedding", "config": {"name": "embedding_309", "trainable": true, "batch_input_shape": [null, null], "dtype": "float32", "input_dim": 2, "output_dim": 271, "embeddings_initializer": {"class_name": "RandomUniform", "config": {"minval": -0.05, "maxval": 0.05, "seed": null}}, "embeddings_regularizer": {"class_name": "L2", "config": {"l2": 0.699999988079071}}, "activity_regularizer": null, "embeddings_constraint": null, "mask_zero": false, "input_length": null}, "name": "embedding_309", "inbound_nodes": [[["CCTV", 0, 0, {}]]]}, {"class_name": "Embedding", "config": {"name": "embedding_310", "trainable": true, "batch_input_shape": [null, null], "dtype": "float32", "input_dim": 2, "output_dim": 271, "embeddings_initializer": {"class_name": "RandomUniform", "config": {"minval": -0.05, "maxval": 0.05, "seed": null}}, "embeddings_regularizer": {"class_name": "L2", "config": {"l2": 0.699999988079071}}, "activity_regularizer": null, "embeddings_constraint": null, "mask_zero": false, "input_length": null}, "name": "embedding_310", "inbound_nodes": [[["Campfire__Bon_Fire", 0, 0, {}]]]}, {"class_name": "Embedding", "config": {"name": "embedding_311", "trainable": true, "batch_input_shape": [null, null], "dtype": "float32", "input_dim": 2, "output_dim": 271, "embeddings_initializer": {"class_name": "RandomUniform", "config": {"minval": -0.05, "maxval": 0.05, "seed": null}}, "embeddings_regularizer": {"class_name": "L2", "config": {"l2": 0.699999988079071}}, "activity_regularizer": null, "embeddings_constraint": null, "mask_zero": false, "input_length": null}, "name": "embedding_311", "inbound_nodes": [[["Car_Rental", 0, 0, {}]]]}, {"class_name": "Embedding", "config": {"name": "embedding_312", "trainable": true, "batch_input_shape": [null, null], "dtype": "float32", "input_dim": 2, "output_dim": 271, "embeddings_initializer": {"class_name": "RandomUniform", "config": {"minval": -0.05, "maxval": 0.05, "seed": null}}, "embeddings_regularizer": {"class_name": "L2", "config": {"l2": 0.699999988079071}}, "activity_regularizer": null, "embeddings_constraint": null, "mask_zero": false, "input_length": null}, "name": "embedding_312", "inbound_nodes": [[["Casino", 0, 0, {}]]]}, {"class_name": "Embedding", "config": {"name": "embedding_313", "trainable": true, "batch_input_shape": [null, null], "dtype": "float32", "input_dim": 2, "output_dim": 271, "embeddings_initializer": {"class_name": "RandomUniform", "config": {"minval": -0.05, "maxval": 0.05, "seed": null}}, "embeddings_regularizer": {"class_name": "L2", "config": {"l2": 0.699999988079071}}, "activity_regularizer": null, "embeddings_constraint": null, "mask_zero": false, "input_length": null}, "name": "embedding_313", "inbound_nodes": [[["Catering", 0, 0, {}]]]}, {"class_name": "Embedding", "config": {"name": "embedding_314", "trainable": true, "batch_input_shape": [null, null], "dtype": "float32", "input_dim": 2, "output_dim": 271, "embeddings_initializer": {"class_name": "RandomUniform", "config": {"minval": -0.05, "maxval": 0.05, "seed": null}}, "embeddings_regularizer": {"class_name": "L2", "config": {"l2": 0.699999988079071}}, "activity_regularizer": null, "embeddings_constraint": null, "mask_zero": false, "input_length": null}, "name": "embedding_314", "inbound_nodes": [[["Cell_Phone_Rental", 0, 0, {}]]]}, {"class_name": "Embedding", "config": {"name": "embedding_315", "trainable": true, "batch_input_shape": [null, null], "dtype": "float32", "input_dim": 2, "output_dim": 271, "embeddings_initializer": {"class_name": "RandomUniform", "config": {"minval": -0.05, "maxval": 0.05, "seed": null}}, "embeddings_regularizer": {"class_name": "L2", "config": {"l2": 0.699999988079071}}, "activity_regularizer": null, "embeddings_constraint": null, "mask_zero": false, "input_length": null}, "name": "embedding_315", "inbound_nodes": [[["Children_s_Park", 0, 0, {}]]]}, {"class_name": "Embedding", "config": {"name": "embedding_316", "trainable": true, "batch_input_shape": [null, null], "dtype": "float32", "input_dim": 2, "output_dim": 271, "embeddings_initializer": {"class_name": "RandomUniform", "config": {"minval": -0.05, "maxval": 0.05, "seed": null}}, "embeddings_regularizer": {"class_name": "L2", "config": {"l2": 0.699999988079071}}, "activity_regularizer": null, "embeddings_constraint": null, "mask_zero": false, "input_length": null}, "name": "embedding_316", "inbound_nodes": [[["City_Shuttle_Service", 0, 0, {}]]]}, {"class_name": "Embedding", "config": {"name": "embedding_317", "trainable": true, "batch_input_shape": [null, null], "dtype": "float32", "input_dim": 2, "output_dim": 271, "embeddings_initializer": {"class_name": "RandomUniform", "config": {"minval": -0.05, "maxval": 0.05, "seed": null}}, "embeddings_regularizer": {"class_name": "L2", "config": {"l2": 0.699999988079071}}, "activity_regularizer": null, "embeddings_constraint": null, "mask_zero": false, "input_length": null}, "name": "embedding_317", "inbound_nodes": [[["Clubhouse", 0, 0, {}]]]}, {"class_name": "Embedding", "config": {"name": "embedding_318", "trainable": true, "batch_input_shape": [null, null], "dtype": "float32", "input_dim": 2, "output_dim": 271, "embeddings_initializer": {"class_name": "RandomUniform", "config": {"minval": -0.05, "maxval": 0.05, "seed": null}}, "embeddings_regularizer": {"class_name": "L2", "config": {"l2": 0.699999988079071}}, "activity_regularizer": null, "embeddings_constraint": null, "mask_zero": false, "input_length": null}, "name": "embedding_318", "inbound_nodes": [[["Coffee_Shop__Cafe", 0, 0, {}]]]}, {"class_name": "Embedding", "config": {"name": "embedding_319", "trainable": true, "batch_input_shape": [null, null], "dtype": "float32", "input_dim": 2, "output_dim": 271, "embeddings_initializer": {"class_name": "RandomUniform", "config": {"minval": -0.05, "maxval": 0.05, "seed": null}}, "embeddings_regularizer": {"class_name": "L2", "config": {"l2": 0.699999988079071}}, "activity_regularizer": null, "embeddings_constraint": null, "mask_zero": false, "input_length": null}, "name": "embedding_319", "inbound_nodes": [[["Computer_Rental", 0, 0, {}]]]}, {"class_name": "Embedding", "config": {"name": "embedding_320", "trainable": true, "batch_input_shape": [null, null], "dtype": "float32", "input_dim": 2, "output_dim": 271, "embeddings_initializer": {"class_name": "RandomUniform", "config": {"minval": -0.05, "maxval": 0.05, "seed": null}}, "embeddings_regularizer": {"class_name": "L2", "config": {"l2": 0.699999988079071}}, "activity_regularizer": null, "embeddings_constraint": null, "mask_zero": false, "input_length": null}, "name": "embedding_320", "inbound_nodes": [[["Concierge", 0, 0, {}]]]}, {"class_name": "Embedding", "config": {"name": "embedding_321", "trainable": true, "batch_input_shape": [null, null], "dtype": "float32", "input_dim": 2, "output_dim": 271, "embeddings_initializer": {"class_name": "RandomUniform", "config": {"minval": -0.05, "maxval": 0.05, "seed": null}}, "embeddings_regularizer": {"class_name": "L2", "config": {"l2": 0.699999988079071}}, "activity_regularizer": null, "embeddings_constraint": null, "mask_zero": false, "input_length": null}, "name": "embedding_321", "inbound_nodes": [[["Conference_Facility", 0, 0, {}]]]}, {"class_name": "Embedding", "config": {"name": "embedding_322", "trainable": true, "batch_input_shape": [null, null], "dtype": "float32", "input_dim": 2, "output_dim": 271, "embeddings_initializer": {"class_name": "RandomUniform", "config": {"minval": -0.05, "maxval": 0.05, "seed": null}}, "embeddings_regularizer": {"class_name": "L2", "config": {"l2": 0.699999988079071}}, "activity_regularizer": null, "embeddings_constraint": null, "mask_zero": false, "input_length": null}, "name": "embedding_322", "inbound_nodes": [[["Courier_Service", 0, 0, {}]]]}, {"class_name": "Embedding", "config": {"name": "embedding_323", "trainable": true, "batch_input_shape": [null, null], "dtype": "float32", "input_dim": 2, "output_dim": 271, "embeddings_initializer": {"class_name": "RandomUniform", "config": {"minval": -0.05, "maxval": 0.05, "seed": null}}, "embeddings_regularizer": {"class_name": "L2", "config": {"l2": 0.699999988079071}}, "activity_regularizer": null, "embeddings_constraint": null, "mask_zero": false, "input_length": null}, "name": "embedding_323", "inbound_nodes": [[["Currency_Exchange", 0, 0, {}]]]}, {"class_name": "Embedding", "config": {"name": "embedding_324", "trainable": true, "batch_input_shape": [null, null], "dtype": "float32", "input_dim": 2, "output_dim": 271, "embeddings_initializer": {"class_name": "RandomUniform", "config": {"minval": -0.05, "maxval": 0.05, "seed": null}}, "embeddings_regularizer": {"class_name": "L2", "config": {"l2": 0.699999988079071}}, "activity_regularizer": null, "embeddings_constraint": null, "mask_zero": false, "input_length": null}, "name": "embedding_324", "inbound_nodes": [[["Disabled_Friendly_Facilities_", 0, 0, {}]]]}, {"class_name": "Embedding", "config": {"name": "embedding_325", "trainable": true, "batch_input_shape": [null, null], "dtype": "float32", "input_dim": 2, "output_dim": 271, "embeddings_initializer": {"class_name": "RandomUniform", "config": {"minval": -0.05, "maxval": 0.05, "seed": null}}, "embeddings_regularizer": {"class_name": "L2", "config": {"l2": 0.699999988079071}}, "activity_regularizer": null, "embeddings_constraint": null, "mask_zero": false, "input_length": null}, "name": "embedding_325", "inbound_nodes": [[["Disabled_Friendly_Rooms", 0, 0, {}]]]}, {"class_name": "Embedding", "config": {"name": "embedding_326", "trainable": true, "batch_input_shape": [null, null], "dtype": "float32", "input_dim": 2, "output_dim": 271, "embeddings_initializer": {"class_name": "RandomUniform", "config": {"minval": -0.05, "maxval": 0.05, "seed": null}}, "embeddings_regularizer": {"class_name": "L2", "config": {"l2": 0.699999988079071}}, "activity_regularizer": null, "embeddings_constraint": null, "mask_zero": false, "input_length": null}, "name": "embedding_326", "inbound_nodes": [[["Discotheque_", 0, 0, {}]]]}, {"class_name": "Embedding", "config": {"name": "embedding_327", "trainable": true, "batch_input_shape": [null, null], "dtype": "float32", "input_dim": 2, "output_dim": 271, "embeddings_initializer": {"class_name": "RandomUniform", "config": {"minval": -0.05, "maxval": 0.05, "seed": null}}, "embeddings_regularizer": {"class_name": "L2", "config": {"l2": 0.699999988079071}}, "activity_regularizer": null, "embeddings_constraint": null, "mask_zero": false, "input_length": null}, "name": "embedding_327", "inbound_nodes": [[["Doctor_on_Call", 0, 0, {}]]]}, {"class_name": "Embedding", "config": {"name": "embedding_328", "trainable": true, "batch_input_shape": [null, null], "dtype": "float32", "input_dim": 2, "output_dim": 271, "embeddings_initializer": {"class_name": "RandomUniform", "config": {"minval": -0.05, "maxval": 0.05, "seed": null}}, "embeddings_regularizer": {"class_name": "L2", "config": {"l2": 0.699999988079071}}, "activity_regularizer": null, "embeddings_constraint": null, "mask_zero": false, "input_length": null}, "name": "embedding_328", "inbound_nodes": [[["Doorman", 0, 0, {}]]]}, {"class_name": "Embedding", "config": {"name": "embedding_329", "trainable": true, "batch_input_shape": [null, null], "dtype": "float32", "input_dim": 2, "output_dim": 271, "embeddings_initializer": {"class_name": "RandomUniform", "config": {"minval": -0.05, "maxval": 0.05, "seed": null}}, "embeddings_regularizer": {"class_name": "L2", "config": {"l2": 0.699999988079071}}, "activity_regularizer": null, "embeddings_constraint": null, "mask_zero": false, "input_length": null}, "name": "embedding_329", "inbound_nodes": [[["Dry_Cleaning", 0, 0, {}]]]}, {"class_name": "Embedding", "config": {"name": "embedding_330", "trainable": true, "batch_input_shape": [null, null], "dtype": "float32", "input_dim": 2, "output_dim": 271, "embeddings_initializer": {"class_name": "RandomUniform", "config": {"minval": -0.05, "maxval": 0.05, "seed": null}}, "embeddings_regularizer": {"class_name": "L2", "config": {"l2": 0.699999988079071}}, "activity_regularizer": null, "embeddings_constraint": null, "mask_zero": false, "input_length": null}, "name": "embedding_330", "inbound_nodes": [[["Electronic__Magnetic_Keys", 0, 0, {}]]]}, {"class_name": "Embedding", "config": {"name": "embedding_331", "trainable": true, "batch_input_shape": [null, null], "dtype": "float32", "input_dim": 2, "output_dim": 271, "embeddings_initializer": {"class_name": "RandomUniform", "config": {"minval": -0.05, "maxval": 0.05, "seed": null}}, "embeddings_regularizer": {"class_name": "L2", "config": {"l2": 0.699999988079071}}, "activity_regularizer": null, "embeddings_constraint": null, "mask_zero": false, "input_length": null}, "name": "embedding_331", "inbound_nodes": [[["Electronic_Check-Out", 0, 0, {}]]]}, {"class_name": "Embedding", "config": {"name": "embedding_332", "trainable": true, "batch_input_shape": [null, null], "dtype": "float32", "input_dim": 2, "output_dim": 271, "embeddings_initializer": {"class_name": "RandomUniform", "config": {"minval": -0.05, "maxval": 0.05, "seed": null}}, "embeddings_regularizer": {"class_name": "L2", "config": {"l2": 0.699999988079071}}, "activity_regularizer": null, "embeddings_constraint": null, "mask_zero": false, "input_length": null}, "name": "embedding_332", "inbound_nodes": [[["Exhibit_Space", 0, 0, {}]]]}, {"class_name": "Embedding", "config": {"name": "embedding_333", "trainable": true, "batch_input_shape": [null, null], "dtype": "float32", "input_dim": 2, "output_dim": 271, "embeddings_initializer": {"class_name": "RandomUniform", "config": {"minval": -0.05, "maxval": 0.05, "seed": null}}, "embeddings_regularizer": {"class_name": "L2", "config": {"l2": 0.699999988079071}}, "activity_regularizer": null, "embeddings_constraint": null, "mask_zero": false, "input_length": null}, "name": "embedding_333", "inbound_nodes": [[["Express_Check-In__Check-Out", 0, 0, {}]]]}, {"class_name": "Embedding", "config": {"name": "embedding_334", "trainable": true, "batch_input_shape": [null, null], "dtype": "float32", "input_dim": 2, "output_dim": 271, "embeddings_initializer": {"class_name": "RandomUniform", "config": {"minval": -0.05, "maxval": 0.05, "seed": null}}, "embeddings_regularizer": {"class_name": "L2", "config": {"l2": 0.699999988079071}}, "activity_regularizer": null, "embeddings_constraint": null, "mask_zero": false, "input_length": null}, "name": "embedding_334", "inbound_nodes": [[["Express_Laundry", 0, 0, {}]]]}, {"class_name": "Embedding", "config": {"name": "embedding_335", "trainable": true, "batch_input_shape": [null, null], "dtype": "float32", "input_dim": 2, "output_dim": 271, "embeddings_initializer": {"class_name": "RandomUniform", "config": {"minval": -0.05, "maxval": 0.05, "seed": null}}, "embeddings_regularizer": {"class_name": "L2", "config": {"l2": 0.699999988079071}}, "activity_regularizer": null, "embeddings_constraint": null, "mask_zero": false, "input_length": null}, "name": "embedding_335", "inbound_nodes": [[["Extra_Person__Child_-_Share_the_same_room", 0, 0, {}]]]}, {"class_name": "Embedding", "config": {"name": "embedding_336", "trainable": true, "batch_input_shape": [null, null], "dtype": "float32", "input_dim": 2, "output_dim": 271, "embeddings_initializer": {"class_name": "RandomUniform", "config": {"minval": -0.05, "maxval": 0.05, "seed": null}}, "embeddings_regularizer": {"class_name": "L2", "config": {"l2": 0.699999988079071}}, "activity_regularizer": null, "embeddings_constraint": null, "mask_zero": false, "input_length": null}, "name": "embedding_336", "inbound_nodes": [[["Family_Room", 0, 0, {}]]]}, {"class_name": "Embedding", "config": {"name": "embedding_337", "trainable": true, "batch_input_shape": [null, null], "dtype": "float32", "input_dim": 2, "output_dim": 271, "embeddings_initializer": {"class_name": "RandomUniform", "config": {"minval": -0.05, "maxval": 0.05, "seed": null}}, "embeddings_regularizer": {"class_name": "L2", "config": {"l2": 0.699999988079071}}, "activity_regularizer": null, "embeddings_constraint": null, "mask_zero": false, "input_length": null}, "name": "embedding_337", "inbound_nodes": [[["Fax_Machine", 0, 0, {}]]]}, {"class_name": "Embedding", "config": {"name": "embedding_338", "trainable": true, "batch_input_shape": [null, null], "dtype": "float32", "input_dim": 2, "output_dim": 271, "embeddings_initializer": {"class_name": "RandomUniform", "config": {"minval": -0.05, "maxval": 0.05, "seed": null}}, "embeddings_regularizer": {"class_name": "L2", "config": {"l2": 0.699999988079071}}, "activity_regularizer": null, "embeddings_constraint": null, "mask_zero": false, "input_length": null}, "name": "embedding_338", "inbound_nodes": [[["Fire_Place_Available_", 0, 0, {}]]]}, {"class_name": "Embedding", "config": {"name": "embedding_339", "trainable": true, "batch_input_shape": [null, null], "dtype": "float32", "input_dim": 2, "output_dim": 271, "embeddings_initializer": {"class_name": "RandomUniform", "config": {"minval": -0.05, "maxval": 0.05, "seed": null}}, "embeddings_regularizer": {"class_name": "L2", "config": {"l2": 0.699999988079071}}, "activity_regularizer": null, "embeddings_constraint": null, "mask_zero": false, "input_length": null}, "name": "embedding_339", "inbound_nodes": [[["Fire_Safety", 0, 0, {}]]]}, {"class_name": "Embedding", "config": {"name": "embedding_340", "trainable": true, "batch_input_shape": [null, null], "dtype": "float32", "input_dim": 2, "output_dim": 271, "embeddings_initializer": {"class_name": "RandomUniform", "config": {"minval": -0.05, "maxval": 0.05, "seed": null}}, "embeddings_regularizer": {"class_name": "L2", "config": {"l2": 0.699999988079071}}, "activity_regularizer": null, "embeddings_constraint": null, "mask_zero": false, "input_length": null}, "name": "embedding_340", "inbound_nodes": [[["First-Aid_Kit_at_Front_Desk", 0, 0, {}]]]}, {"class_name": "Embedding", "config": {"name": "embedding_341", "trainable": true, "batch_input_shape": [null, null], "dtype": "float32", "input_dim": 2, "output_dim": 271, "embeddings_initializer": {"class_name": "RandomUniform", "config": {"minval": -0.05, "maxval": 0.05, "seed": null}}, "embeddings_regularizer": {"class_name": "L2", "config": {"l2": 0.699999988079071}}, "activity_regularizer": null, "embeddings_constraint": null, "mask_zero": false, "input_length": null}, "name": "embedding_341", "inbound_nodes": [[["Fishing", 0, 0, {}]]]}, {"class_name": "Embedding", "config": {"name": "embedding_342", "trainable": true, "batch_input_shape": [null, null], "dtype": "float32", "input_dim": 2, "output_dim": 271, "embeddings_initializer": {"class_name": "RandomUniform", "config": {"minval": -0.05, "maxval": 0.05, "seed": null}}, "embeddings_regularizer": {"class_name": "L2", "config": {"l2": 0.699999988079071}}, "activity_regularizer": null, "embeddings_constraint": null, "mask_zero": false, "input_length": null}, "name": "embedding_342", "inbound_nodes": [[["Fitness_Equipment", 0, 0, {}]]]}, {"class_name": "Embedding", "config": {"name": "embedding_343", "trainable": true, "batch_input_shape": [null, null], "dtype": "float32", "input_dim": 2, "output_dim": 271, "embeddings_initializer": {"class_name": "RandomUniform", "config": {"minval": -0.05, "maxval": 0.05, "seed": null}}, "embeddings_regularizer": {"class_name": "L2", "config": {"l2": 0.699999988079071}}, "activity_regularizer": null, "embeddings_constraint": null, "mask_zero": false, "input_length": null}, "name": "embedding_343", "inbound_nodes": [[["Floor_Butler", 0, 0, {}]]]}, {"class_name": "Embedding", "config": {"name": "embedding_344", "trainable": true, "batch_input_shape": [null, null], "dtype": "float32", "input_dim": 2, "output_dim": 271, "embeddings_initializer": {"class_name": "RandomUniform", "config": {"minval": -0.05, "maxval": 0.05, "seed": null}}, "embeddings_regularizer": {"class_name": "L2", "config": {"l2": 0.699999988079071}}, "activity_regularizer": null, "embeddings_constraint": null, "mask_zero": false, "input_length": null}, "name": "embedding_344", "inbound_nodes": [[["Flower_Shop", 0, 0, {}]]]}, {"class_name": "Embedding", "config": {"name": "embedding_345", "trainable": true, "batch_input_shape": [null, null], "dtype": "float32", "input_dim": 2, "output_dim": 271, "embeddings_initializer": {"class_name": "RandomUniform", "config": {"minval": -0.05, "maxval": 0.05, "seed": null}}, "embeddings_regularizer": {"class_name": "L2", "config": {"l2": 0.699999988079071}}, "activity_regularizer": null, "embeddings_constraint": null, "mask_zero": false, "input_length": null}, "name": "embedding_345", "inbound_nodes": [[["Free_Local_Calls", 0, 0, {}]]]}, {"class_name": "Embedding", "config": {"name": "embedding_346", "trainable": true, "batch_input_shape": [null, null], "dtype": "float32", "input_dim": 2, "output_dim": 271, "embeddings_initializer": {"class_name": "RandomUniform", "config": {"minval": -0.05, "maxval": 0.05, "seed": null}}, "embeddings_regularizer": {"class_name": "L2", "config": {"l2": 0.699999988079071}}, "activity_regularizer": null, "embeddings_constraint": null, "mask_zero": false, "input_length": null}, "name": "embedding_346", "inbound_nodes": [[["Front_Desk", 0, 0, {}]]]}, {"class_name": "Embedding", "config": {"name": "embedding_347", "trainable": true, "batch_input_shape": [null, null], "dtype": "float32", "input_dim": 2, "output_dim": 271, "embeddings_initializer": {"class_name": "RandomUniform", "config": {"minval": -0.05, "maxval": 0.05, "seed": null}}, "embeddings_regularizer": {"class_name": "L2", "config": {"l2": 0.699999988079071}}, "activity_regularizer": null, "embeddings_constraint": null, "mask_zero": false, "input_length": null}, "name": "embedding_347", "inbound_nodes": [[["Full_Time_Operation_for_All_7_Days", 0, 0, {}]]]}, {"class_name": "Embedding", "config": {"name": "embedding_348", "trainable": true, "batch_input_shape": [null, null], "dtype": "float32", "input_dim": 2, "output_dim": 271, "embeddings_initializer": {"class_name": "RandomUniform", "config": {"minval": -0.05, "maxval": 0.05, "seed": null}}, "embeddings_regularizer": {"class_name": "L2", "config": {"l2": 0.699999988079071}}, "activity_regularizer": null, "embeddings_constraint": null, "mask_zero": false, "input_length": null}, "name": "embedding_348", "inbound_nodes": [[["Fun_Floats", 0, 0, {}]]]}, {"class_name": "Embedding", "config": {"name": "embedding_349", "trainable": true, "batch_input_shape": [null, null], "dtype": "float32", "input_dim": 2, "output_dim": 271, "embeddings_initializer": {"class_name": "RandomUniform", "config": {"minval": -0.05, "maxval": 0.05, "seed": null}}, "embeddings_regularizer": {"class_name": "L2", "config": {"l2": 0.699999988079071}}, "activity_regularizer": null, "embeddings_constraint": null, "mask_zero": false, "input_length": null}, "name": "embedding_349", "inbound_nodes": [[["Games_Zone", 0, 0, {}]]]}, {"class_name": "Embedding", "config": {"name": "embedding_350", "trainable": true, "batch_input_shape": [null, null], "dtype": "float32", "input_dim": 2, "output_dim": 271, "embeddings_initializer": {"class_name": "RandomUniform", "config": {"minval": -0.05, "maxval": 0.05, "seed": null}}, "embeddings_regularizer": {"class_name": "L2", "config": {"l2": 0.699999988079071}}, "activity_regularizer": null, "embeddings_constraint": null, "mask_zero": false, "input_length": null}, "name": "embedding_350", "inbound_nodes": [[["Gardens", 0, 0, {}]]]}, {"class_name": "Embedding", "config": {"name": "embedding_351", "trainable": true, "batch_input_shape": [null, null], "dtype": "float32", "input_dim": 2, "output_dim": 271, "embeddings_initializer": {"class_name": "RandomUniform", "config": {"minval": -0.05, "maxval": 0.05, "seed": null}}, "embeddings_regularizer": {"class_name": "L2", "config": {"l2": 0.699999988079071}}, "activity_regularizer": null, "embeddings_constraint": null, "mask_zero": false, "input_length": null}, "name": "embedding_351", "inbound_nodes": [[["Gift_Shop_", 0, 0, {}]]]}, {"class_name": "Embedding", "config": {"name": "embedding_352", "trainable": true, "batch_input_shape": [null, null], "dtype": "float32", "input_dim": 2, "output_dim": 271, "embeddings_initializer": {"class_name": "RandomUniform", "config": {"minval": -0.05, "maxval": 0.05, "seed": null}}, "embeddings_regularizer": {"class_name": "L2", "config": {"l2": 0.699999988079071}}, "activity_regularizer": null, "embeddings_constraint": null, "mask_zero": false, "input_length": null}, "name": "embedding_352", "inbound_nodes": [[["Golf_Course", 0, 0, {}]]]}, {"class_name": "Embedding", "config": {"name": "embedding_353", "trainable": true, "batch_input_shape": [null, null], "dtype": "float32", "input_dim": 2, "output_dim": 271, "embeddings_initializer": {"class_name": "RandomUniform", "config": {"minval": -0.05, "maxval": 0.05, "seed": null}}, "embeddings_regularizer": {"class_name": "L2", "config": {"l2": 0.699999988079071}}, "activity_regularizer": null, "embeddings_constraint": null, "mask_zero": false, "input_length": null}, "name": "embedding_353", "inbound_nodes": [[["Grocery", 0, 0, {}]]]}, {"class_name": "Embedding", "config": {"name": "embedding_354", "trainable": true, "batch_input_shape": [null, null], "dtype": "float32", "input_dim": 2, "output_dim": 271, "embeddings_initializer": {"class_name": "RandomUniform", "config": {"minval": -0.05, "maxval": 0.05, "seed": null}}, "embeddings_regularizer": {"class_name": "L2", "config": {"l2": 0.699999988079071}}, "activity_regularizer": null, "embeddings_constraint": null, "mask_zero": false, "input_length": null}, "name": "embedding_354", "inbound_nodes": [[["Guide__Sightseeing_Service", 0, 0, {}]]]}, {"class_name": "Embedding", "config": {"name": "embedding_355", "trainable": true, "batch_input_shape": [null, null], "dtype": "float32", "input_dim": 2, "output_dim": 271, "embeddings_initializer": {"class_name": "RandomUniform", "config": {"minval": -0.05, "maxval": 0.05, "seed": null}}, "embeddings_regularizer": {"class_name": "L2", "config": {"l2": 0.699999988079071}}, "activity_regularizer": null, "embeddings_constraint": null, "mask_zero": false, "input_length": null}, "name": "embedding_355", "inbound_nodes": [[["Health_Club__Gym_Facility_Available", 0, 0, {}]]]}, {"class_name": "Embedding", "config": {"name": "embedding_356", "trainable": true, "batch_input_shape": [null, null], "dtype": "float32", "input_dim": 2, "output_dim": 271, "embeddings_initializer": {"class_name": "RandomUniform", "config": {"minval": -0.05, "maxval": 0.05, "seed": null}}, "embeddings_regularizer": {"class_name": "L2", "config": {"l2": 0.699999988079071}}, "activity_regularizer": null, "embeddings_constraint": null, "mask_zero": false, "input_length": null}, "name": "embedding_356", "inbound_nodes": [[["Hookah_Lounge", 0, 0, {}]]]}, {"class_name": "Embedding", "config": {"name": "embedding_357", "trainable": true, "batch_input_shape": [null, null], "dtype": "float32", "input_dim": 2, "output_dim": 271, "embeddings_initializer": {"class_name": "RandomUniform", "config": {"minval": -0.05, "maxval": 0.05, "seed": null}}, "embeddings_regularizer": {"class_name": "L2", "config": {"l2": 0.699999988079071}}, "activity_regularizer": null, "embeddings_constraint": null, "mask_zero": false, "input_length": null}, "name": "embedding_357", "inbound_nodes": [[["In_House_Events_", 0, 0, {}]]]}, {"class_name": "Embedding", "config": {"name": "embedding_358", "trainable": true, "batch_input_shape": [null, null], "dtype": "float32", "input_dim": 2, "output_dim": 271, "embeddings_initializer": {"class_name": "RandomUniform", "config": {"minval": -0.05, "maxval": 0.05, "seed": null}}, "embeddings_regularizer": {"class_name": "L2", "config": {"l2": 0.699999988079071}}, "activity_regularizer": null, "embeddings_constraint": null, "mask_zero": false, "input_length": null}, "name": "embedding_358", "inbound_nodes": [[["Internet_Access_-_Surcharge", 0, 0, {}]]]}, {"class_name": "Embedding", "config": {"name": "embedding_359", "trainable": true, "batch_input_shape": [null, null], "dtype": "float32", "input_dim": 2, "output_dim": 271, "embeddings_initializer": {"class_name": "RandomUniform", "config": {"minval": -0.05, "maxval": 0.05, "seed": null}}, "embeddings_regularizer": {"class_name": "L2", "config": {"l2": 0.699999988079071}}, "activity_regularizer": null, "embeddings_constraint": null, "mask_zero": false, "input_length": null}, "name": "embedding_359", "inbound_nodes": [[["Jacuzzi", 0, 0, {}]]]}, {"class_name": "Embedding", "config": {"name": "embedding_360", "trainable": true, "batch_input_shape": [null, null], "dtype": "float32", "input_dim": 2, "output_dim": 271, "embeddings_initializer": {"class_name": "RandomUniform", "config": {"minval": -0.05, "maxval": 0.05, "seed": null}}, "embeddings_regularizer": {"class_name": "L2", "config": {"l2": 0.699999988079071}}, "activity_regularizer": null, "embeddings_constraint": null, "mask_zero": false, "input_length": null}, "name": "embedding_360", "inbound_nodes": [[["Karaoke", 0, 0, {}]]]}, {"class_name": "Embedding", "config": {"name": "embedding_361", "trainable": true, "batch_input_shape": [null, null], "dtype": "float32", "input_dim": 2, "output_dim": 271, "embeddings_initializer": {"class_name": "RandomUniform", "config": {"minval": -0.05, "maxval": 0.05, "seed": null}}, "embeddings_regularizer": {"class_name": "L2", "config": {"l2": 0.699999988079071}}, "activity_regularizer": null, "embeddings_constraint": null, "mask_zero": false, "input_length": null}, "name": "embedding_361", "inbound_nodes": [[["Kids_Play_Zone", 0, 0, {}]]]}, {"class_name": "Embedding", "config": {"name": "embedding_362", "trainable": true, "batch_input_shape": [null, null], "dtype": "float32", "input_dim": 2, "output_dim": 271, "embeddings_initializer": {"class_name": "RandomUniform", "config": {"minval": -0.05, "maxval": 0.05, "seed": null}}, "embeddings_regularizer": {"class_name": "L2", "config": {"l2": 0.699999988079071}}, "activity_regularizer": null, "embeddings_constraint": null, "mask_zero": false, "input_length": null}, "name": "embedding_362", "inbound_nodes": [[["Laundry_Service_Available", 0, 0, {}]]]}, {"class_name": "Embedding", "config": {"name": "embedding_363", "trainable": true, "batch_input_shape": [null, null], "dtype": "float32", "input_dim": 2, "output_dim": 271, "embeddings_initializer": {"class_name": "RandomUniform", "config": {"minval": -0.05, "maxval": 0.05, "seed": null}}, "embeddings_regularizer": {"class_name": "L2", "config": {"l2": 0.699999988079071}}, "activity_regularizer": null, "embeddings_constraint": null, "mask_zero": false, "input_length": null}, "name": "embedding_363", "inbound_nodes": [[["Library", 0, 0, {}]]]}, {"class_name": "Embedding", "config": {"name": "embedding_364", "trainable": true, "batch_input_shape": [null, null], "dtype": "float32", "input_dim": 2, "output_dim": 271, "embeddings_initializer": {"class_name": "RandomUniform", "config": {"minval": -0.05, "maxval": 0.05, "seed": null}}, "embeddings_regularizer": {"class_name": "L2", "config": {"l2": 0.699999988079071}}, "activity_regularizer": null, "embeddings_constraint": null, "mask_zero": false, "input_length": null}, "name": "embedding_364", "inbound_nodes": [[["Lift__Elevator", 0, 0, {}]]]}, {"class_name": "Embedding", "config": {"name": "embedding_365", "trainable": true, "batch_input_shape": [null, null], "dtype": "float32", "input_dim": 2, "output_dim": 271, "embeddings_initializer": {"class_name": "RandomUniform", "config": {"minval": -0.05, "maxval": 0.05, "seed": null}}, "embeddings_regularizer": {"class_name": "L2", "config": {"l2": 0.699999988079071}}, "activity_regularizer": null, "embeddings_constraint": null, "mask_zero": false, "input_length": null}, "name": "embedding_365", "inbound_nodes": [[["Limousine_Service_Available", 0, 0, {}]]]}, {"class_name": "Embedding", "config": {"name": "embedding_366", "trainable": true, "batch_input_shape": [null, null], "dtype": "float32", "input_dim": 2, "output_dim": 271, "embeddings_initializer": {"class_name": "RandomUniform", "config": {"minval": -0.05, "maxval": 0.05, "seed": null}}, "embeddings_regularizer": {"class_name": "L2", "config": {"l2": 0.699999988079071}}, "activity_regularizer": null, "embeddings_constraint": null, "mask_zero": false, "input_length": null}, "name": "embedding_366", "inbound_nodes": [[["Lobby", 0, 0, {}]]]}, {"class_name": "Embedding", "config": {"name": "embedding_367", "trainable": true, "batch_input_shape": [null, null], "dtype": "float32", "input_dim": 2, "output_dim": 271, "embeddings_initializer": {"class_name": "RandomUniform", "config": {"minval": -0.05, "maxval": 0.05, "seed": null}}, "embeddings_regularizer": {"class_name": "L2", "config": {"l2": 0.699999988079071}}, "activity_regularizer": null, "embeddings_constraint": null, "mask_zero": false, "input_length": null}, "name": "embedding_367", "inbound_nodes": [[["Local_Tour__Travel_Desk", 0, 0, {}]]]}, {"class_name": "Embedding", "config": {"name": "embedding_368", "trainable": true, "batch_input_shape": [null, null], "dtype": "float32", "input_dim": 2, "output_dim": 271, "embeddings_initializer": {"class_name": "RandomUniform", "config": {"minval": -0.05, "maxval": 0.05, "seed": null}}, "embeddings_regularizer": {"class_name": "L2", "config": {"l2": 0.699999988079071}}, "activity_regularizer": null, "embeddings_constraint": null, "mask_zero": false, "input_length": null}, "name": "embedding_368", "inbound_nodes": [[["Locker_Facility", 0, 0, {}]]]}, {"class_name": "Embedding", "config": {"name": "embedding_369", "trainable": true, "batch_input_shape": [null, null], "dtype": "float32", "input_dim": 2, "output_dim": 271, "embeddings_initializer": {"class_name": "RandomUniform", "config": {"minval": -0.05, "maxval": 0.05, "seed": null}}, "embeddings_regularizer": {"class_name": "L2", "config": {"l2": 0.699999988079071}}, "activity_regularizer": null, "embeddings_constraint": null, "mask_zero": false, "input_length": null}, "name": "embedding_369", "inbound_nodes": [[["Major_Credit_Cards_Accepted", 0, 0, {}]]]}, {"class_name": "Embedding", "config": {"name": "embedding_370", "trainable": true, "batch_input_shape": [null, null], "dtype": "float32", "input_dim": 2, "output_dim": 271, "embeddings_initializer": {"class_name": "RandomUniform", "config": {"minval": -0.05, "maxval": 0.05, "seed": null}}, "embeddings_regularizer": {"class_name": "L2", "config": {"l2": 0.699999988079071}}, "activity_regularizer": null, "embeddings_constraint": null, "mask_zero": false, "input_length": null}, "name": "embedding_370", "inbound_nodes": [[["Marina_On_Site", 0, 0, {}]]]}, {"class_name": "Embedding", "config": {"name": "embedding_371", "trainable": true, "batch_input_shape": [null, null], "dtype": "float32", "input_dim": 2, "output_dim": 271, "embeddings_initializer": {"class_name": "RandomUniform", "config": {"minval": -0.05, "maxval": 0.05, "seed": null}}, "embeddings_regularizer": {"class_name": "L2", "config": {"l2": 0.699999988079071}}, "activity_regularizer": null, "embeddings_constraint": null, "mask_zero": false, "input_length": null}, "name": "embedding_371", "inbound_nodes": [[["Massage_Services", 0, 0, {}]]]}, {"class_name": "Embedding", "config": {"name": "embedding_372", "trainable": true, "batch_input_shape": [null, null], "dtype": "float32", "input_dim": 2, "output_dim": 271, "embeddings_initializer": {"class_name": "RandomUniform", "config": {"minval": -0.05, "maxval": 0.05, "seed": null}}, "embeddings_regularizer": {"class_name": "L2", "config": {"l2": 0.699999988079071}}, "activity_regularizer": null, "embeddings_constraint": null, "mask_zero": false, "input_length": null}, "name": "embedding_372", "inbound_nodes": [[["Medical_Assistance_Available", 0, 0, {}]]]}, {"class_name": "Embedding", "config": {"name": "embedding_373", "trainable": true, "batch_input_shape": [null, null], "dtype": "float32", "input_dim": 2, "output_dim": 271, "embeddings_initializer": {"class_name": "RandomUniform", "config": {"minval": -0.05, "maxval": 0.05, "seed": null}}, "embeddings_regularizer": {"class_name": "L2", "config": {"l2": 0.699999988079071}}, "activity_regularizer": null, "embeddings_constraint": null, "mask_zero": false, "input_length": null}, "name": "embedding_373", "inbound_nodes": [[["Metal_Detectors", 0, 0, {}]]]}, {"class_name": "Embedding", "config": {"name": "embedding_374", "trainable": true, "batch_input_shape": [null, null], "dtype": "float32", "input_dim": 2, "output_dim": 271, "embeddings_initializer": {"class_name": "RandomUniform", "config": {"minval": -0.05, "maxval": 0.05, "seed": null}}, "embeddings_regularizer": {"class_name": "L2", "config": {"l2": 0.699999988079071}}, "activity_regularizer": null, "embeddings_constraint": null, "mask_zero": false, "input_length": null}, "name": "embedding_374", "inbound_nodes": [[["Mini_Theatre", 0, 0, {}]]]}, {"class_name": "Embedding", "config": {"name": "embedding_375", "trainable": true, "batch_input_shape": [null, null], "dtype": "float32", "input_dim": 2, "output_dim": 271, "embeddings_initializer": {"class_name": "RandomUniform", "config": {"minval": -0.05, "maxval": 0.05, "seed": null}}, "embeddings_regularizer": {"class_name": "L2", "config": {"l2": 0.699999988079071}}, "activity_regularizer": null, "embeddings_constraint": null, "mask_zero": false, "input_length": null}, "name": "embedding_375", "inbound_nodes": [[["Multi_Cuisine_Restaurant", 0, 0, {}]]]}, {"class_name": "Embedding", "config": {"name": "embedding_376", "trainable": true, "batch_input_shape": [null, null], "dtype": "float32", "input_dim": 2, "output_dim": 271, "embeddings_initializer": {"class_name": "RandomUniform", "config": {"minval": -0.05, "maxval": 0.05, "seed": null}}, "embeddings_regularizer": {"class_name": "L2", "config": {"l2": 0.699999988079071}}, "activity_regularizer": null, "embeddings_constraint": null, "mask_zero": false, "input_length": null}, "name": "embedding_376", "inbound_nodes": [[["Multi_Lingual_Staff", 0, 0, {}]]]}, {"class_name": "Embedding", "config": {"name": "embedding_377", "trainable": true, "batch_input_shape": [null, null], "dtype": "float32", "input_dim": 2, "output_dim": 271, "embeddings_initializer": {"class_name": "RandomUniform", "config": {"minval": -0.05, "maxval": 0.05, "seed": null}}, "embeddings_regularizer": {"class_name": "L2", "config": {"l2": 0.699999988079071}}, "activity_regularizer": null, "embeddings_constraint": null, "mask_zero": false, "input_length": null}, "name": "embedding_377", "inbound_nodes": [[["Nature_Walk", 0, 0, {}]]]}, {"class_name": "Embedding", "config": {"name": "embedding_378", "trainable": true, "batch_input_shape": [null, null], "dtype": "float32", "input_dim": 2, "output_dim": 271, "embeddings_initializer": {"class_name": "RandomUniform", "config": {"minval": -0.05, "maxval": 0.05, "seed": null}}, "embeddings_regularizer": {"class_name": "L2", "config": {"l2": 0.699999988079071}}, "activity_regularizer": null, "embeddings_constraint": null, "mask_zero": false, "input_length": null}, "name": "embedding_378", "inbound_nodes": [[["Night_Club", 0, 0, {}]]]}, {"class_name": "Embedding", "config": {"name": "embedding_379", "trainable": true, "batch_input_shape": [null, null], "dtype": "float32", "input_dim": 2, "output_dim": 271, "embeddings_initializer": {"class_name": "RandomUniform", "config": {"minval": -0.05, "maxval": 0.05, "seed": null}}, "embeddings_regularizer": {"class_name": "L2", "config": {"l2": 0.699999988079071}}, "activity_regularizer": null, "embeddings_constraint": null, "mask_zero": false, "input_length": null}, "name": "embedding_379", "inbound_nodes": [[["Open_Air_Restaurant__Dining", 0, 0, {}]]]}, {"class_name": "Embedding", "config": {"name": "embedding_380", "trainable": true, "batch_input_shape": [null, null], "dtype": "float32", "input_dim": 2, "output_dim": 271, "embeddings_initializer": {"class_name": "RandomUniform", "config": {"minval": -0.05, "maxval": 0.05, "seed": null}}, "embeddings_regularizer": {"class_name": "L2", "config": {"l2": 0.699999988079071}}, "activity_regularizer": null, "embeddings_constraint": null, "mask_zero": false, "input_length": null}, "name": "embedding_380", "inbound_nodes": [[["Oxygen_Cylinder_on_request", 0, 0, {}]]]}, {"class_name": "Embedding", "config": {"name": "embedding_381", "trainable": true, "batch_input_shape": [null, null], "dtype": "float32", "input_dim": 2, "output_dim": 271, "embeddings_initializer": {"class_name": "RandomUniform", "config": {"minval": -0.05, "maxval": 0.05, "seed": null}}, "embeddings_regularizer": {"class_name": "L2", "config": {"l2": 0.699999988079071}}, "activity_regularizer": null, "embeddings_constraint": null, "mask_zero": false, "input_length": null}, "name": "embedding_381", "inbound_nodes": [[["Paid_Transfers", 0, 0, {}]]]}, {"class_name": "Embedding", "config": {"name": "embedding_382", "trainable": true, "batch_input_shape": [null, null], "dtype": "float32", "input_dim": 2, "output_dim": 271, "embeddings_initializer": {"class_name": "RandomUniform", "config": {"minval": -0.05, "maxval": 0.05, "seed": null}}, "embeddings_regularizer": {"class_name": "L2", "config": {"l2": 0.699999988079071}}, "activity_regularizer": null, "embeddings_constraint": null, "mask_zero": false, "input_length": null}, "name": "embedding_382", "inbound_nodes": [[["Parking_Facility", 0, 0, {}]]]}, {"class_name": "Embedding", "config": {"name": "embedding_383", "trainable": true, "batch_input_shape": [null, null], "dtype": "float32", "input_dim": 2, "output_dim": 271, "embeddings_initializer": {"class_name": "RandomUniform", "config": {"minval": -0.05, "maxval": 0.05, "seed": null}}, "embeddings_regularizer": {"class_name": "L2", "config": {"l2": 0.699999988079071}}, "activity_regularizer": null, "embeddings_constraint": null, "mask_zero": false, "input_length": null}, "name": "embedding_383", "inbound_nodes": [[["Party_hall", 0, 0, {}]]]}, {"class_name": "Embedding", "config": {"name": "embedding_384", "trainable": true, "batch_input_shape": [null, null], "dtype": "float32", "input_dim": 2, "output_dim": 271, "embeddings_initializer": {"class_name": "RandomUniform", "config": {"minval": -0.05, "maxval": 0.05, "seed": null}}, "embeddings_regularizer": {"class_name": "L2", "config": {"l2": 0.699999988079071}}, "activity_regularizer": null, "embeddings_constraint": null, "mask_zero": false, "input_length": null}, "name": "embedding_384", "inbound_nodes": [[["Pest_Control_Facility", 0, 0, {}]]]}, {"class_name": "Embedding", "config": {"name": "embedding_385", "trainable": true, "batch_input_shape": [null, null], "dtype": "float32", "input_dim": 2, "output_dim": 271, "embeddings_initializer": {"class_name": "RandomUniform", "config": {"minval": -0.05, "maxval": 0.05, "seed": null}}, "embeddings_regularizer": {"class_name": "L2", "config": {"l2": 0.699999988079071}}, "activity_regularizer": null, "embeddings_constraint": null, "mask_zero": false, "input_length": null}, "name": "embedding_385", "inbound_nodes": [[["Pets_Allowed", 0, 0, {}]]]}, {"class_name": "Embedding", "config": {"name": "embedding_386", "trainable": true, "batch_input_shape": [null, null], "dtype": "float32", "input_dim": 2, "output_dim": 271, "embeddings_initializer": {"class_name": "RandomUniform", "config": {"minval": -0.05, "maxval": 0.05, "seed": null}}, "embeddings_regularizer": {"class_name": "L2", "config": {"l2": 0.699999988079071}}, "activity_regularizer": null, "embeddings_constraint": null, "mask_zero": false, "input_length": null}, "name": "embedding_386", "inbound_nodes": [[["Pick_Up_and_Drop_Rly_Station__Bus_Stand__Temple", 0, 0, {}]]]}, {"class_name": "Embedding", "config": {"name": "embedding_387", "trainable": true, "batch_input_shape": [null, null], "dtype": "float32", "input_dim": 2, "output_dim": 271, "embeddings_initializer": {"class_name": "RandomUniform", "config": {"minval": -0.05, "maxval": 0.05, "seed": null}}, "embeddings_regularizer": {"class_name": "L2", "config": {"l2": 0.699999988079071}}, "activity_regularizer": null, "embeddings_constraint": null, "mask_zero": false, "input_length": null}, "name": "embedding_387", "inbound_nodes": [[["Picnic_Area", 0, 0, {}]]]}, {"class_name": "Embedding", "config": {"name": "embedding_388", "trainable": true, "batch_input_shape": [null, null], "dtype": "float32", "input_dim": 2, "output_dim": 271, "embeddings_initializer": {"class_name": "RandomUniform", "config": {"minval": -0.05, "maxval": 0.05, "seed": null}}, "embeddings_regularizer": {"class_name": "L2", "config": {"l2": 0.699999988079071}}, "activity_regularizer": null, "embeddings_constraint": null, "mask_zero": false, "input_length": null}, "name": "embedding_388", "inbound_nodes": [[["Pool_Table", 0, 0, {}]]]}, {"class_name": "Embedding", "config": {"name": "embedding_389", "trainable": true, "batch_input_shape": [null, null], "dtype": "float32", "input_dim": 2, "output_dim": 271, "embeddings_initializer": {"class_name": "RandomUniform", "config": {"minval": -0.05, "maxval": 0.05, "seed": null}}, "embeddings_regularizer": {"class_name": "L2", "config": {"l2": 0.699999988079071}}, "activity_regularizer": null, "embeddings_constraint": null, "mask_zero": false, "input_length": null}, "name": "embedding_389", "inbound_nodes": [[["Postal__Parcel_Services", 0, 0, {}]]]}, {"class_name": "Embedding", "config": {"name": "embedding_390", "trainable": true, "batch_input_shape": [null, null], "dtype": "float32", "input_dim": 2, "output_dim": 271, "embeddings_initializer": {"class_name": "RandomUniform", "config": {"minval": -0.05, "maxval": 0.05, "seed": null}}, "embeddings_regularizer": {"class_name": "L2", "config": {"l2": 0.699999988079071}}, "activity_regularizer": null, "embeddings_constraint": null, "mask_zero": false, "input_length": null}, "name": "embedding_390", "inbound_nodes": [[["Power_Backup", 0, 0, {}]]]}, {"class_name": "Embedding", "config": {"name": "embedding_391", "trainable": true, "batch_input_shape": [null, null], "dtype": "float32", "input_dim": 2, "output_dim": 271, "embeddings_initializer": {"class_name": "RandomUniform", "config": {"minval": -0.05, "maxval": 0.05, "seed": null}}, "embeddings_regularizer": {"class_name": "L2", "config": {"l2": 0.699999988079071}}, "activity_regularizer": null, "embeddings_constraint": null, "mask_zero": false, "input_length": null}, "name": "embedding_391", "inbound_nodes": [[["Private__Plunge_Pool", 0, 0, {}]]]}, {"class_name": "Embedding", "config": {"name": "embedding_392", "trainable": true, "batch_input_shape": [null, null], "dtype": "float32", "input_dim": 2, "output_dim": 271, "embeddings_initializer": {"class_name": "RandomUniform", "config": {"minval": -0.05, "maxval": 0.05, "seed": null}}, "embeddings_regularizer": {"class_name": "L2", "config": {"l2": 0.699999988079071}}, "activity_regularizer": null, "embeddings_constraint": null, "mask_zero": false, "input_length": null}, "name": "embedding_392", "inbound_nodes": [[["Private_Beach", 0, 0, {}]]]}, {"class_name": "Embedding", "config": {"name": "embedding_393", "trainable": true, "batch_input_shape": [null, null], "dtype": "float32", "input_dim": 2, "output_dim": 271, "embeddings_initializer": {"class_name": "RandomUniform", "config": {"minval": -0.05, "maxval": 0.05, "seed": null}}, "embeddings_regularizer": {"class_name": "L2", "config": {"l2": 0.699999988079071}}, "activity_regularizer": null, "embeddings_constraint": null, "mask_zero": false, "input_length": null}, "name": "embedding_393", "inbound_nodes": [[["Public_Restrooms", 0, 0, {}]]]}, {"class_name": "Embedding", "config": {"name": "embedding_394", "trainable": true, "batch_input_shape": [null, null], "dtype": "float32", "input_dim": 2, "output_dim": 271, "embeddings_initializer": {"class_name": "RandomUniform", "config": {"minval": -0.05, "maxval": 0.05, "seed": null}}, "embeddings_regularizer": {"class_name": "L2", "config": {"l2": 0.699999988079071}}, "activity_regularizer": null, "embeddings_constraint": null, "mask_zero": false, "input_length": null}, "name": "embedding_394", "inbound_nodes": [[["RO_Water_Purification_System", 0, 0, {}]]]}, {"class_name": "Embedding", "config": {"name": "embedding_395", "trainable": true, "batch_input_shape": [null, null], "dtype": "float32", "input_dim": 2, "output_dim": 271, "embeddings_initializer": {"class_name": "RandomUniform", "config": {"minval": -0.05, "maxval": 0.05, "seed": null}}, "embeddings_regularizer": {"class_name": "L2", "config": {"l2": 0.699999988079071}}, "activity_regularizer": null, "embeddings_constraint": null, "mask_zero": false, "input_length": null}, "name": "embedding_395", "inbound_nodes": [[["Recreation_Zone", 0, 0, {}]]]}, {"class_name": "Embedding", "config": {"name": "embedding_396", "trainable": true, "batch_input_shape": [null, null], "dtype": "float32", "input_dim": 2, "output_dim": 271, "embeddings_initializer": {"class_name": "RandomUniform", "config": {"minval": -0.05, "maxval": 0.05, "seed": null}}, "embeddings_regularizer": {"class_name": "L2", "config": {"l2": 0.699999988079071}}, "activity_regularizer": null, "embeddings_constraint": null, "mask_zero": false, "input_length": null}, "name": "embedding_396", "inbound_nodes": [[["Restaurant", 0, 0, {}]]]}, {"class_name": "Embedding", "config": {"name": "embedding_397", "trainable": true, "batch_input_shape": [null, null], "dtype": "float32", "input_dim": 2, "output_dim": 271, "embeddings_initializer": {"class_name": "RandomUniform", "config": {"minval": -0.05, "maxval": 0.05, "seed": null}}, "embeddings_regularizer": {"class_name": "L2", "config": {"l2": 0.699999988079071}}, "activity_regularizer": null, "embeddings_constraint": null, "mask_zero": false, "input_length": null}, "name": "embedding_397", "inbound_nodes": [[["Rooftop_Garden", 0, 0, {}]]]}, {"class_name": "Embedding", "config": {"name": "embedding_398", "trainable": true, "batch_input_shape": [null, null], "dtype": "float32", "input_dim": 2, "output_dim": 271, "embeddings_initializer": {"class_name": "RandomUniform", "config": {"minval": -0.05, "maxval": 0.05, "seed": null}}, "embeddings_regularizer": {"class_name": "L2", "config": {"l2": 0.699999988079071}}, "activity_regularizer": null, "embeddings_constraint": null, "mask_zero": false, "input_length": null}, "name": "embedding_398", "inbound_nodes": [[["Sauna", 0, 0, {}]]]}, {"class_name": "Embedding", "config": {"name": "embedding_399", "trainable": true, "batch_input_shape": [null, null], "dtype": "float32", "input_dim": 2, "output_dim": 271, "embeddings_initializer": {"class_name": "RandomUniform", "config": {"minval": -0.05, "maxval": 0.05, "seed": null}}, "embeddings_regularizer": {"class_name": "L2", "config": {"l2": 0.699999988079071}}, "activity_regularizer": null, "embeddings_constraint": null, "mask_zero": false, "input_length": null}, "name": "embedding_399", "inbound_nodes": [[["Secretarial_Services", 0, 0, {}]]]}, {"class_name": "Embedding", "config": {"name": "embedding_400", "trainable": true, "batch_input_shape": [null, null], "dtype": "float32", "input_dim": 2, "output_dim": 271, "embeddings_initializer": {"class_name": "RandomUniform", "config": {"minval": -0.05, "maxval": 0.05, "seed": null}}, "embeddings_regularizer": {"class_name": "L2", "config": {"l2": 0.699999988079071}}, "activity_regularizer": null, "embeddings_constraint": null, "mask_zero": false, "input_length": null}, "name": "embedding_400", "inbound_nodes": [[["Security_at_All_Hotel_Entrances", 0, 0, {}]]]}, {"class_name": "Embedding", "config": {"name": "embedding_401", "trainable": true, "batch_input_shape": [null, null], "dtype": "float32", "input_dim": 2, "output_dim": 271, "embeddings_initializer": {"class_name": "RandomUniform", "config": {"minval": -0.05, "maxval": 0.05, "seed": null}}, "embeddings_regularizer": {"class_name": "L2", "config": {"l2": 0.699999988079071}}, "activity_regularizer": null, "embeddings_constraint": null, "mask_zero": false, "input_length": null}, "name": "embedding_401", "inbound_nodes": [[["Self_Check_-_In", 0, 0, {}]]]}, {"class_name": "Embedding", "config": {"name": "embedding_402", "trainable": true, "batch_input_shape": [null, null], "dtype": "float32", "input_dim": 2, "output_dim": 271, "embeddings_initializer": {"class_name": "RandomUniform", "config": {"minval": -0.05, "maxval": 0.05, "seed": null}}, "embeddings_regularizer": {"class_name": "L2", "config": {"l2": 0.699999988079071}}, "activity_regularizer": null, "embeddings_constraint": null, "mask_zero": false, "input_length": null}, "name": "embedding_402", "inbound_nodes": [[["Separate_Sitting_Area", 0, 0, {}]]]}, {"class_name": "Embedding", "config": {"name": "embedding_403", "trainable": true, "batch_input_shape": [null, null], "dtype": "float32", "input_dim": 2, "output_dim": 271, "embeddings_initializer": {"class_name": "RandomUniform", "config": {"minval": -0.05, "maxval": 0.05, "seed": null}}, "embeddings_regularizer": {"class_name": "L2", "config": {"l2": 0.699999988079071}}, "activity_regularizer": null, "embeddings_constraint": null, "mask_zero": false, "input_length": null}, "name": "embedding_403", "inbound_nodes": [[["Skiing_Facility_Available", 0, 0, {}]]]}, {"class_name": "Embedding", "config": {"name": "embedding_404", "trainable": true, "batch_input_shape": [null, null], "dtype": "float32", "input_dim": 2, "output_dim": 271, "embeddings_initializer": {"class_name": "RandomUniform", "config": {"minval": -0.05, "maxval": 0.05, "seed": null}}, "embeddings_regularizer": {"class_name": "L2", "config": {"l2": 0.699999988079071}}, "activity_regularizer": null, "embeddings_constraint": null, "mask_zero": false, "input_length": null}, "name": "embedding_404", "inbound_nodes": [[["Smoke_Detector", 0, 0, {}]]]}, {"class_name": "Embedding", "config": {"name": "embedding_405", "trainable": true, "batch_input_shape": [null, null], "dtype": "float32", "input_dim": 2, "output_dim": 271, "embeddings_initializer": {"class_name": "RandomUniform", "config": {"minval": -0.05, "maxval": 0.05, "seed": null}}, "embeddings_regularizer": {"class_name": "L2", "config": {"l2": 0.699999988079071}}, "activity_regularizer": null, "embeddings_constraint": null, "mask_zero": false, "input_length": null}, "name": "embedding_405", "inbound_nodes": [[["Smoking_Area", 0, 0, {}]]]}, {"class_name": "Embedding", "config": {"name": "embedding_406", "trainable": true, "batch_input_shape": [null, null], "dtype": "float32", "input_dim": 2, "output_dim": 271, "embeddings_initializer": {"class_name": "RandomUniform", "config": {"minval": -0.05, "maxval": 0.05, "seed": null}}, "embeddings_regularizer": {"class_name": "L2", "config": {"l2": 0.699999988079071}}, "activity_regularizer": null, "embeddings_constraint": null, "mask_zero": false, "input_length": null}, "name": "embedding_406", "inbound_nodes": [[["Solarium", 0, 0, {}]]]}, {"class_name": "Embedding", "config": {"name": "embedding_407", "trainable": true, "batch_input_shape": [null, null], "dtype": "float32", "input_dim": 2, "output_dim": 271, "embeddings_initializer": {"class_name": "RandomUniform", "config": {"minval": -0.05, "maxval": 0.05, "seed": null}}, "embeddings_regularizer": {"class_name": "L2", "config": {"l2": 0.699999988079071}}, "activity_regularizer": null, "embeddings_constraint": null, "mask_zero": false, "input_length": null}, "name": "embedding_407", "inbound_nodes": [[["Speciality_Restaurant", 0, 0, {}]]]}, {"class_name": "Embedding", "config": {"name": "embedding_408", "trainable": true, "batch_input_shape": [null, null], "dtype": "float32", "input_dim": 2, "output_dim": 271, "embeddings_initializer": {"class_name": "RandomUniform", "config": {"minval": -0.05, "maxval": 0.05, "seed": null}}, "embeddings_regularizer": {"class_name": "L2", "config": {"l2": 0.699999988079071}}, "activity_regularizer": null, "embeddings_constraint": null, "mask_zero": false, "input_length": null}, "name": "embedding_408", "inbound_nodes": [[["Squash_court", 0, 0, {}]]]}, {"class_name": "Embedding", "config": {"name": "embedding_409", "trainable": true, "batch_input_shape": [null, null], "dtype": "float32", "input_dim": 2, "output_dim": 271, "embeddings_initializer": {"class_name": "RandomUniform", "config": {"minval": -0.05, "maxval": 0.05, "seed": null}}, "embeddings_regularizer": {"class_name": "L2", "config": {"l2": 0.699999988079071}}, "activity_regularizer": null, "embeddings_constraint": null, "mask_zero": false, "input_length": null}, "name": "embedding_409", "inbound_nodes": [[["Stamps_and_Mailing_Facility", 0, 0, {}]]]}, {"class_name": "Embedding", "config": {"name": "embedding_410", "trainable": true, "batch_input_shape": [null, null], "dtype": "float32", "input_dim": 2, "output_dim": 271, "embeddings_initializer": {"class_name": "RandomUniform", "config": {"minval": -0.05, "maxval": 0.05, "seed": null}}, "embeddings_regularizer": {"class_name": "L2", "config": {"l2": 0.699999988079071}}, "activity_regularizer": null, "embeddings_constraint": null, "mask_zero": false, "input_length": null}, "name": "embedding_410", "inbound_nodes": [[["Suites", 0, 0, {}]]]}, {"class_name": "Embedding", "config": {"name": "embedding_411", "trainable": true, "batch_input_shape": [null, null], "dtype": "float32", "input_dim": 2, "output_dim": 271, "embeddings_initializer": {"class_name": "RandomUniform", "config": {"minval": -0.05, "maxval": 0.05, "seed": null}}, "embeddings_regularizer": {"class_name": "L2", "config": {"l2": 0.699999988079071}}, "activity_regularizer": null, "embeddings_constraint": null, "mask_zero": false, "input_length": null}, "name": "embedding_411", "inbound_nodes": [[["Swimming_Pool", 0, 0, {}]]]}, {"class_name": "Embedding", "config": {"name": "embedding_412", "trainable": true, "batch_input_shape": [null, null], "dtype": "float32", "input_dim": 2, "output_dim": 271, "embeddings_initializer": {"class_name": "RandomUniform", "config": {"minval": -0.05, "maxval": 0.05, "seed": null}}, "embeddings_regularizer": {"class_name": "L2", "config": {"l2": 0.699999988079071}}, "activity_regularizer": null, "embeddings_constraint": null, "mask_zero": false, "input_length": null}, "name": "embedding_412", "inbound_nodes": [[["Table_Tennis", 0, 0, {}]]]}, {"class_name": "Embedding", "config": {"name": "embedding_413", "trainable": true, "batch_input_shape": [null, null], "dtype": "float32", "input_dim": 2, "output_dim": 271, "embeddings_initializer": {"class_name": "RandomUniform", "config": {"minval": -0.05, "maxval": 0.05, "seed": null}}, "embeddings_regularizer": {"class_name": "L2", "config": {"l2": 0.699999988079071}}, "activity_regularizer": null, "embeddings_constraint": null, "mask_zero": false, "input_length": null}, "name": "embedding_413", "inbound_nodes": [[["Taxi_Services", 0, 0, {}]]]}, {"class_name": "Embedding", "config": {"name": "embedding_414", "trainable": true, "batch_input_shape": [null, null], "dtype": "float32", "input_dim": 2, "output_dim": 271, "embeddings_initializer": {"class_name": "RandomUniform", "config": {"minval": -0.05, "maxval": 0.05, "seed": null}}, "embeddings_regularizer": {"class_name": "L2", "config": {"l2": 0.699999988079071}}, "activity_regularizer": null, "embeddings_constraint": null, "mask_zero": false, "input_length": null}, "name": "embedding_414", "inbound_nodes": [[["Tennis_Court", 0, 0, {}]]]}, {"class_name": "Embedding", "config": {"name": "embedding_415", "trainable": true, "batch_input_shape": [null, null], "dtype": "float32", "input_dim": 2, "output_dim": 271, "embeddings_initializer": {"class_name": "RandomUniform", "config": {"minval": -0.05, "maxval": 0.05, "seed": null}}, "embeddings_regularizer": {"class_name": "L2", "config": {"l2": 0.699999988079071}}, "activity_regularizer": null, "embeddings_constraint": null, "mask_zero": false, "input_length": null}, "name": "embedding_415", "inbound_nodes": [[["Valet_service", 0, 0, {}]]]}, {"class_name": "Embedding", "config": {"name": "embedding_416", "trainable": true, "batch_input_shape": [null, null], "dtype": "float32", "input_dim": 2, "output_dim": 271, "embeddings_initializer": {"class_name": "RandomUniform", "config": {"minval": -0.05, "maxval": 0.05, "seed": null}}, "embeddings_regularizer": {"class_name": "L2", "config": {"l2": 0.699999988079071}}, "activity_regularizer": null, "embeddings_constraint": null, "mask_zero": false, "input_length": null}, "name": "embedding_416", "inbound_nodes": [[["Vegetarian_Food__Jain_Food_Available", 0, 0, {}]]]}, {"class_name": "Embedding", "config": {"name": "embedding_417", "trainable": true, "batch_input_shape": [null, null], "dtype": "float32", "input_dim": 2, "output_dim": 271, "embeddings_initializer": {"class_name": "RandomUniform", "config": {"minval": -0.05, "maxval": 0.05, "seed": null}}, "embeddings_regularizer": {"class_name": "L2", "config": {"l2": 0.699999988079071}}, "activity_regularizer": null, "embeddings_constraint": null, "mask_zero": false, "input_length": null}, "name": "embedding_417", "inbound_nodes": [[["Veranda", 0, 0, {}]]]}, {"class_name": "Embedding", "config": {"name": "embedding_418", "trainable": true, "batch_input_shape": [null, null], "dtype": "float32", "input_dim": 2, "output_dim": 271, "embeddings_initializer": {"class_name": "RandomUniform", "config": {"minval": -0.05, "maxval": 0.05, "seed": null}}, "embeddings_regularizer": {"class_name": "L2", "config": {"l2": 0.699999988079071}}, "activity_regularizer": null, "embeddings_constraint": null, "mask_zero": false, "input_length": null}, "name": "embedding_418", "inbound_nodes": [[["Virtual_Golf", 0, 0, {}]]]}, {"class_name": "Embedding", "config": {"name": "embedding_419", "trainable": true, "batch_input_shape": [null, null], "dtype": "float32", "input_dim": 2, "output_dim": 271, "embeddings_initializer": {"class_name": "RandomUniform", "config": {"minval": -0.05, "maxval": 0.05, "seed": null}}, "embeddings_regularizer": {"class_name": "L2", "config": {"l2": 0.699999988079071}}, "activity_regularizer": null, "embeddings_constraint": null, "mask_zero": false, "input_length": null}, "name": "embedding_419", "inbound_nodes": [[["Voicemail", 0, 0, {}]]]}, {"class_name": "Embedding", "config": {"name": "embedding_420", "trainable": true, "batch_input_shape": [null, null], "dtype": "float32", "input_dim": 2, "output_dim": 271, "embeddings_initializer": {"class_name": "RandomUniform", "config": {"minval": -0.05, "maxval": 0.05, "seed": null}}, "embeddings_regularizer": {"class_name": "L2", "config": {"l2": 0.699999988079071}}, "activity_regularizer": null, "embeddings_constraint": null, "mask_zero": false, "input_length": null}, "name": "embedding_420", "inbound_nodes": [[["Wake-up_Call__Service", 0, 0, {}]]]}, {"class_name": "Embedding", "config": {"name": "embedding_421", "trainable": true, "batch_input_shape": [null, null], "dtype": "float32", "input_dim": 2, "output_dim": 271, "embeddings_initializer": {"class_name": "RandomUniform", "config": {"minval": -0.05, "maxval": 0.05, "seed": null}}, "embeddings_regularizer": {"class_name": "L2", "config": {"l2": 0.699999988079071}}, "activity_regularizer": null, "embeddings_constraint": null, "mask_zero": false, "input_length": null}, "name": "embedding_421", "inbound_nodes": [[["Water_Dispenser_Available", 0, 0, {}]]]}, {"class_name": "Embedding", "config": {"name": "embedding_422", "trainable": true, "batch_input_shape": [null, null], "dtype": "float32", "input_dim": 2, "output_dim": 271, "embeddings_initializer": {"class_name": "RandomUniform", "config": {"minval": -0.05, "maxval": 0.05, "seed": null}}, "embeddings_regularizer": {"class_name": "L2", "config": {"l2": 0.699999988079071}}, "activity_regularizer": null, "embeddings_constraint": null, "mask_zero": false, "input_length": null}, "name": "embedding_422", "inbound_nodes": [[["Wedding_Services_Facility", 0, 0, {}]]]}, {"class_name": "Embedding", "config": {"name": "embedding_423", "trainable": true, "batch_input_shape": [null, null], "dtype": "float32", "input_dim": 2, "output_dim": 271, "embeddings_initializer": {"class_name": "RandomUniform", "config": {"minval": -0.05, "maxval": 0.05, "seed": null}}, "embeddings_regularizer": {"class_name": "L2", "config": {"l2": 0.699999988079071}}, "activity_regularizer": null, "embeddings_constraint": null, "mask_zero": false, "input_length": null}, "name": "embedding_423", "inbound_nodes": [[["Welcome_Drinks", 0, 0, {}]]]}, {"class_name": "Embedding", "config": {"name": "embedding_424", "trainable": true, "batch_input_shape": [null, null], "dtype": "float32", "input_dim": 2, "output_dim": 271, "embeddings_initializer": {"class_name": "RandomUniform", "config": {"minval": -0.05, "maxval": 0.05, "seed": null}}, "embeddings_regularizer": {"class_name": "L2", "config": {"l2": 0.699999988079071}}, "activity_regularizer": null, "embeddings_constraint": null, "mask_zero": false, "input_length": null}, "name": "embedding_424", "inbound_nodes": [[["Wheelchair_Accessibility_-_Room", 0, 0, {}]]]}, {"class_name": "Embedding", "config": {"name": "embedding_425", "trainable": true, "batch_input_shape": [null, null], "dtype": "float32", "input_dim": 2, "output_dim": 271, "embeddings_initializer": {"class_name": "RandomUniform", "config": {"minval": -0.05, "maxval": 0.05, "seed": null}}, "embeddings_regularizer": {"class_name": "L2", "config": {"l2": 0.699999988079071}}, "activity_regularizer": null, "embeddings_constraint": null, "mask_zero": false, "input_length": null}, "name": "embedding_425", "inbound_nodes": [[["Whirlpool_Bath__Shower_Cubicle", 0, 0, {}]]]}, {"class_name": "Embedding", "config": {"name": "embedding_426", "trainable": true, "batch_input_shape": [null, null], "dtype": "float32", "input_dim": 2, "output_dim": 271, "embeddings_initializer": {"class_name": "RandomUniform", "config": {"minval": -0.05, "maxval": 0.05, "seed": null}}, "embeddings_regularizer": {"class_name": "L2", "config": {"l2": 0.699999988079071}}, "activity_regularizer": null, "embeddings_constraint": null, "mask_zero": false, "input_length": null}, "name": "embedding_426", "inbound_nodes": [[["X-Ray_Machine_at_Entrance", 0, 0, {}]]]}, {"class_name": "Embedding", "config": {"name": "embedding_427", "trainable": true, "batch_input_shape": [null, null], "dtype": "float32", "input_dim": 2, "output_dim": 271, "embeddings_initializer": {"class_name": "RandomUniform", "config": {"minval": -0.05, "maxval": 0.05, "seed": null}}, "embeddings_regularizer": {"class_name": "L2", "config": {"l2": 0.699999988079071}}, "activity_regularizer": null, "embeddings_constraint": null, "mask_zero": false, "input_length": null}, "name": "embedding_427", "inbound_nodes": [[["120_AC", 0, 0, {}]]]}, {"class_name": "Embedding", "config": {"name": "embedding_428", "trainable": true, "batch_input_shape": [null, null], "dtype": "float32", "input_dim": 2, "output_dim": 271, "embeddings_initializer": {"class_name": "RandomUniform", "config": {"minval": -0.05, "maxval": 0.05, "seed": null}}, "embeddings_regularizer": {"class_name": "L2", "config": {"l2": 0.699999988079071}}, "activity_regularizer": null, "embeddings_constraint": null, "mask_zero": false, "input_length": null}, "name": "embedding_428", "inbound_nodes": [[["220_AC", 0, 0, {}]]]}, {"class_name": "Embedding", "config": {"name": "embedding_429", "trainable": true, "batch_input_shape": [null, null], "dtype": "float32", "input_dim": 2, "output_dim": 271, "embeddings_initializer": {"class_name": "RandomUniform", "config": {"minval": -0.05, "maxval": 0.05, "seed": null}}, "embeddings_regularizer": {"class_name": "L2", "config": {"l2": 0.699999988079071}}, "activity_regularizer": null, "embeddings_constraint": null, "mask_zero": false, "input_length": null}, "name": "embedding_429", "inbound_nodes": [[["Air_Conditioning", 0, 0, {}]]]}, {"class_name": "Embedding", "config": {"name": "embedding_430", "trainable": true, "batch_input_shape": [null, null], "dtype": "float32", "input_dim": 2, "output_dim": 271, "embeddings_initializer": {"class_name": "RandomUniform", "config": {"minval": -0.05, "maxval": 0.05, "seed": null}}, "embeddings_regularizer": {"class_name": "L2", "config": {"l2": 0.699999988079071}}, "activity_regularizer": null, "embeddings_constraint": null, "mask_zero": false, "input_length": null}, "name": "embedding_430", "inbound_nodes": [[["Air_Cooler", 0, 0, {}]]]}, {"class_name": "Embedding", "config": {"name": "embedding_431", "trainable": true, "batch_input_shape": [null, null], "dtype": "float32", "input_dim": 2, "output_dim": 271, "embeddings_initializer": {"class_name": "RandomUniform", "config": {"minval": -0.05, "maxval": 0.05, "seed": null}}, "embeddings_regularizer": {"class_name": "L2", "config": {"l2": 0.699999988079071}}, "activity_regularizer": null, "embeddings_constraint": null, "mask_zero": false, "input_length": null}, "name": "embedding_431", "inbound_nodes": [[["Alarm_Clock", 0, 0, {}]]]}, {"class_name": "Embedding", "config": {"name": "embedding_432", "trainable": true, "batch_input_shape": [null, null], "dtype": "float32", "input_dim": 2, "output_dim": 271, "embeddings_initializer": {"class_name": "RandomUniform", "config": {"minval": -0.05, "maxval": 0.05, "seed": null}}, "embeddings_regularizer": {"class_name": "L2", "config": {"l2": 0.699999988079071}}, "activity_regularizer": null, "embeddings_constraint": null, "mask_zero": false, "input_length": null}, "name": "embedding_432", "inbound_nodes": [[["Attached_Bathroom", 0, 0, {}]]]}, {"class_name": "Embedding", "config": {"name": "embedding_433", "trainable": true, "batch_input_shape": [null, null], "dtype": "float32", "input_dim": 2, "output_dim": 271, "embeddings_initializer": {"class_name": "RandomUniform", "config": {"minval": -0.05, "maxval": 0.05, "seed": null}}, "embeddings_regularizer": {"class_name": "L2", "config": {"l2": 0.699999988079071}}, "activity_regularizer": null, "embeddings_constraint": null, "mask_zero": false, "input_length": null}, "name": "embedding_433", "inbound_nodes": [[["Balcony", 0, 0, {}]]]}, {"class_name": "Embedding", "config": {"name": "embedding_434", "trainable": true, "batch_input_shape": [null, null], "dtype": "float32", "input_dim": 2, "output_dim": 271, "embeddings_initializer": {"class_name": "RandomUniform", "config": {"minval": -0.05, "maxval": 0.05, "seed": null}}, "embeddings_regularizer": {"class_name": "L2", "config": {"l2": 0.699999988079071}}, "activity_regularizer": null, "embeddings_constraint": null, "mask_zero": false, "input_length": null}, "name": "embedding_434", "inbound_nodes": [[["Bathrobe", 0, 0, {}]]]}, {"class_name": "Embedding", "config": {"name": "embedding_435", "trainable": true, "batch_input_shape": [null, null], "dtype": "float32", "input_dim": 2, "output_dim": 271, "embeddings_initializer": {"class_name": "RandomUniform", "config": {"minval": -0.05, "maxval": 0.05, "seed": null}}, "embeddings_regularizer": {"class_name": "L2", "config": {"l2": 0.699999988079071}}, "activity_regularizer": null, "embeddings_constraint": null, "mask_zero": false, "input_length": null}, "name": "embedding_435", "inbound_nodes": [[["Bathrobes", 0, 0, {}]]]}, {"class_name": "Embedding", "config": {"name": "embedding_436", "trainable": true, "batch_input_shape": [null, null], "dtype": "float32", "input_dim": 2, "output_dim": 271, "embeddings_initializer": {"class_name": "RandomUniform", "config": {"minval": -0.05, "maxval": 0.05, "seed": null}}, "embeddings_regularizer": {"class_name": "L2", "config": {"l2": 0.699999988079071}}, "activity_regularizer": null, "embeddings_constraint": null, "mask_zero": false, "input_length": null}, "name": "embedding_436", "inbound_nodes": [[["Bathroom_Amenities", 0, 0, {}]]]}, {"class_name": "Embedding", "config": {"name": "embedding_437", "trainable": true, "batch_input_shape": [null, null], "dtype": "float32", "input_dim": 2, "output_dim": 271, "embeddings_initializer": {"class_name": "RandomUniform", "config": {"minval": -0.05, "maxval": 0.05, "seed": null}}, "embeddings_regularizer": {"class_name": "L2", "config": {"l2": 0.699999988079071}}, "activity_regularizer": null, "embeddings_constraint": null, "mask_zero": false, "input_length": null}, "name": "embedding_437", "inbound_nodes": [[["Bathtub", 0, 0, {}]]]}, {"class_name": "Embedding", "config": {"name": "embedding_438", "trainable": true, "batch_input_shape": [null, null], "dtype": "float32", "input_dim": 2, "output_dim": 271, "embeddings_initializer": {"class_name": "RandomUniform", "config": {"minval": -0.05, "maxval": 0.05, "seed": null}}, "embeddings_regularizer": {"class_name": "L2", "config": {"l2": 0.699999988079071}}, "activity_regularizer": null, "embeddings_constraint": null, "mask_zero": false, "input_length": null}, "name": "embedding_438", "inbound_nodes": [[["Bathtub_Only", 0, 0, {}]]]}, {"class_name": "Embedding", "config": {"name": "embedding_439", "trainable": true, "batch_input_shape": [null, null], "dtype":…
", 0, 0], ["Hostel", 0, 0], ["Hotel", 0, 0], ["Houseboat", 0, 0], ["Lodge", 0, 0], ["Motel", 0, 0], ["Palace", 0, 0], ["Resort", 0, 0], ["Service_Apartment", 0, 0], ["Tent", 0, 0], ["Villa", 0, 0], ["_Bike_on_Rent", 0, 0], ["_Drivers_Rest_Room", 0, 0], ["ATM__Banking", 0, 0], ["Access_Via_Exterior_Corridors", 0, 0], ["Adjoining_Rooms", 0, 0], ["Air__Rail_Booking", 0, 0], ["Air-Conditioning_-_Central", 0, 0], ["Amphitheatre", 0, 0], ["Ayurvedic_Facilities_", 0, 0], ["Babysitting_Child_Care_surcharge", 0, 0], ["Badminttion_Court", 0, 0], ["Baggage_Room", 0, 0], ["Ballroom", 0, 0], ["Banquet_Facilities", 0, 0], ["Bar__Lounge_", 0, 0], ["Barbecue_Area", 0, 0], ["Basketball_Court_", 0, 0], ["Beauty_Salon_-_on_charge", 0, 0], ["Billiards", 0, 0], ["Board_Room", 0, 0], ["Bowling", 0, 0], ["Business_Center", 0, 0], ["CCTV", 0, 0], ["Campfire__Bon_Fire", 0, 0], ["Car_Rental", 0, 0], ["Casino", 0, 0], ["Catering", 0, 0], ["Cell_Phone_Rental", 0, 0], ["Children_s_Park", 0, 0], ["City_Shuttle_Service", 0, 0], ["Clubhouse", 0, 0], ["Coffee_Shop__Cafe", 0, 0], ["Computer_Rental", 0, 0], ["Concierge", 0, 0], ["Conference_Facility", 0, 0], ["Courier_Service", 0, 0], ["Currency_Exchange", 0, 0], ["Disabled_Friendly_Facilities_", 0, 0], ["Disabled_Friendly_Rooms", 0, 0], ["Discotheque_", 0, 0], ["Doctor_on_Call", 0, 0], ["Doorman", 0, 0], ["Dry_Cleaning", 0, 0], ["Electronic__Magnetic_Keys", 0, 0], ["Electronic_Check-Out", 0, 0], ["Exhibit_Space", 0, 0], ["Express_Check-In__Check-Out", 0, 0], ["Express_Laundry", 0, 0], ["Extra_Person__Child_-_Share_the_same_room", 0, 0], ["Family_Room", 0, 0], ["Fax_Machine", 0, 0], ["Fire_Place_Available_", 0, 0], ["Fire_Safety", 0, 0], ["First-Aid_Kit_at_Front_Desk", 0, 0], ["Fishing", 0, 0], ["Fitness_Equipment", 0, 0], ["Floor_Butler", 0, 0], ["Flower_Shop", 0, 0], ["Free_Local_Calls", 0, 0], ["Front_Desk", 0, 0], ["Full_Time_Operation_for_All_7_Days", 0, 0], ["Fun_Floats", 0, 0], ["Games_Zone", 0, 0], ["Gardens", 0, 0], ["Gift_Shop_", 0, 0], ["Golf_Course", 0, 0], ["Grocery", 0, 0], ["Guide__Sightseeing_Service", 0, 0], ["Health_Club__Gym_Facility_Available", 0, 0], ["Hookah_Lounge", 0, 0], ["In_House_Events_", 0, 0], ["Internet_Access_-_Surcharge", 0, 0], ["Jacuzzi", 0, 0], ["Karaoke", 0, 0], ["Kids_Play_Zone", 0, 0], ["Laundry_Service_Available", 0, 0], ["Library", 0, 0], ["Lift__Elevator", 0, 0], ["Limousine_Service_Available", 0, 0], ["Lobby", 0, 0], ["Local_Tour__Travel_Desk", 0, 0], ["Locker_Facility", 0, 0], ["Major_Credit_Cards_Accepted", 0, 0], ["Marina_On_Site", 0, 0], ["Massage_Services", 0, 0], ["Medical_Assistance_Available", 0, 0], ["Metal_Detectors", 0, 0], ["Mini_Theatre", 0, 0], ["Multi_Cuisine_Restaurant", 0, 0], ["Multi_Lingual_Staff", 0, 0], ["Nature_Walk", 0, 0], ["Night_Club", 0, 0], ["Open_Air_Restaurant__Dining", 0, 0], ["Oxygen_Cylinder_on_request", 0, 0], ["Paid_Transfers", 0, 0], ["Parking_Facility", 0, 0], ["Party_hall", 0, 0], ["Pest_Control_Facility", 0, 0], ["Pets_Allowed", 0, 0], ["Pick_Up_and_Drop_Rly_Station__Bus_Stand__Temple", 0, 0], ["Picnic_Area", 0, 0], ["Pool_Table", 0, 0], ["Postal__Parcel_Services", 0, 0], ["Power_Backup", 0, 0], ["Private__Plunge_Pool", 0, 0], ["Private_Beach", 0, 0], ["Public_Restrooms", 0, 0], ["RO_Water_Purification_System", 0, 0], ["Recreation_Zone", 0, 0], ["Restaurant", 0, 0], ["Rooftop_Garden", 0, 0], ["Sauna", 0, 0], ["Secretarial_Services", 0, 0], ["Security_at_All_Hotel_Entrances", 0, 0], ["Self_Check_-_In", 0, 0], ["Separate_Sitting_Area", 0, 0], ["Skiing_Facility_Available", 0, 0], ["Smoke_Detector", 0, 0], ["Smoking_Area", 0, 0], ["Solarium", 0, 0], ["Speciality_Restaurant", 0, 0], ["Squash_court", 0, 0], ["Stamps_and_Mailing_Facility", 0, 0], ["Suites", 0, 0], ["Swimming_Pool", 0, 0], ["Table_Tennis", 0, 0], ["Taxi_Services", 0, 0], ["Tennis_Court", 0, 0], ["Valet_service", 0, 0], ["Vegetarian_Food__Jain_Food_Available", 0, 0], ["Veranda", 0, 0], ["Virtual_Golf", 0, 0], ["Voicemail", 0, 0], ["Wake-up_Call__Service", 0, 0], ["Water_Dispenser_Available", 0, 0], ["Wedding_Services_Facility", 0, 0], ["Welcome_Drinks", 0, 0], ["Wheelchair_Accessibility_-_Room", 0, 0], ["Whirlpool_Bath__Shower_Cubicle", 0, 0], ["X-Ray_Machine_at_Entrance", 0, 0], ["120_AC", 0, 0], ["220_AC", 0, 0], ["Air_Conditioning", 0, 0], ["Air_Cooler", 0, 0], ["Alarm_Clock", 0, 0], ["Attached_Bathroom", 0, 0], ["Balcony", 0, 0], ["Bathrobe", 0, 0], ["Bathrobes", 0, 0], ["Bathroom_Amenities", 0, 0], ["Bathtub", 0, 0], ["Bathtub_Only", 0, 0], ["Bedside_Table", 0, 0], ["Bidet", 0, 0], ["Blackout_Drapes", 0, 0], ["Breakfast_Available", 0, 0], ["Breakfast_chargeable", 0, 0], ["Ceiling_Fan", 0, 0], ["Centrally_Heated", 0, 0], ["Channel_Music", 0, 0], ["Climate_Control", 0, 0], ["Closet", 0, 0], ["Clothes_Dryer", 0, 0], ["Clothes_Hook_in_Bathroom", 0, 0], ["Coffee_Table", 0, 0], ["Complete_Bedding", 0, 0], ["Complimentary_Use_of_Bicycle", 0, 0], ["Computer", 0, 0], ["Cribs_Available", 0, 0], ["Crockery__Cutlery", 0, 0], ["CurtainsShades", 0, 0], ["Daily_Room_Cleaning", 0, 0], ["Desk", 0, 0], ["Direct_Dial_Phone", 0, 0], ["Disabled_Friendly_Bathrooms", 0, 0], ["Do-Not-Disturb_Notice", 0, 0], ["Dressing_Area", 0, 0], ["Dustbins", 0, 0], ["Ensuite__Private_Bathroom", 0, 0], ["Extra_Bed__Towels__Linens__Bedding_on_request", 0, 0], ["Extra_Toilteries_on_Demand", 0, 0], ["Full_Kitchen", 0, 0], ["Gas_Cylinder_-_Chargeable", 0, 0], ["HD__LCD_Satellite_TV", 0, 0], ["Hairdryer", 0, 0], ["Handicapped_Facilities", 0, 0], ["Hill_View_from_all_Rooms", 0, 0], ["Hot__Cold_Running_Water", 0, 0], ["Housekeeping", 0, 0], ["Ice_Bucket_on_Demand", 0, 0], ["In-room_Storage_Space", 0, 0], ["Induction_Plate", 0, 0], ["International_Switch_Plugs_on_request", 0, 0], ["Kitchenette", 0, 0], ["Luggage_Rack", 0, 0], ["Mineral_Water", 0, 0], ["Mini_Bar", 0, 0], ["Mini_Refrigerator", 0, 0], ["Mirror", 0, 0], ["Modern_Toilet_Facilities", 0, 0], ["Movie_Channels", 0, 0], ["Movies_-_Games_on_demand", 0, 0], ["Newspapers", 0, 0], ["No_Smoking_Room", 0, 0], ["Patio_-_Property", 0, 0], ["Phone_Messaging_Services", 0, 0], ["Pillow_menu", 0, 0], ["Premium_Amenities__Toiletries", 0, 0], ["Premium_Beddings__Hypo-Allergenic_", 0, 0], ["Primium_Bathrooms", 0, 0], ["Private_Garden", 0, 0], ["Radio", 0, 0], ["Reading_Lamps", 0, 0], ["Remote_Control_TV", 0, 0], ["Remote_Controlled_Lights_and_Fan", 0, 0], ["Rollaway_Beds", 0, 0], ["Room_Door_Fitted_with_Lock_and_Key", 0, 0], ["Safe_on_request", 0, 0], ["Sanitary_Bin", 0, 0], ["Second_Bathrooms", 0, 0], ["Separate_Bathtubs_And_Shower", 0, 0], ["Shared_Bathroom", 0, 0], ["Shower", 0, 0], ["Shower_Cap", 0, 0], ["Slippers", 0, 0], ["Snacks__Beverage", 0, 0], ["Sofa_Cum_Bed_Available", 0, 0], ["Sofa_Table__Extra_Seats", 0, 0], ["Soft_Bar", 0, 0], ["Soundproof_Windows", 0, 0], ["Split_A.C_s", 0, 0], ["Studio_Apartment_-_Large", 0, 0], ["Tea_Coffee_Kettle__Maker", 0, 0], ["Telephone", 0, 0], ["Television", 0, 0], ["Toaster", 0, 0], ["Toiletries", 0, 0], ["Utensils_on_request", 0, 0], ["Video_DVD_CD_Player_Available", 0, 0], ["Wardrobe", 0, 0], ["Washing_machine", 0, 0], ["Western_Toilet_Seat", 0, 0], ["Work_Station", 0, 0], ["Heating_Facility_on_Request", 0, 0], ["Safe", 0, 0], ["Iron__Ironing_board", 0, 0], ["Microwave__Oven", 0, 0], ["Window_Open__Ventilation", 0, 0], ["Outdoor_Parking", 0, 0], ["Porter_Services", 0, 0], ["Spa_Services", 0, 0], ["Poolside_Cafe", 0, 0], ["Airport_Transfer", 0, 0]], "output_layers": [["activation", 0, 0]]}}, "training_config": {"loss": "binary_crossentropy", "metrics": [[{"class_name": "MeanMetricWrapper", "config": {"name": "binary_crossentropy", "dtype": "float32", "fn": "binary_crossentropy"}}]], "weighted_metrics": null, "loss_weights": null, "optimizer_config": {"class_name": "Adam", "config": {"name": "Adam", "learning_rate": 0.0010000000474974513, "decay": 0.0, "beta_1": 0.8999999761581421, "beta_2": 0.9990000128746033, "epsilon": 1e-07, "amsgrad": false}}}}, "weightsManifest": [{"paths": ["group1-shard1of19.bin", "group1-shard2of19.bin", "group1-shard3of19.bin", "group1-shard4of19.bin", "group1-shard5of19.bin", "group1-shard6of19.bin", "group1-shard7of19.bin", "group1-shard8of19.bin", "group1-shard9of19.bin", "group1-shard10of19.bin", "group1-shard11of19.bin", "group1-shard12of19.bin", "group1-shard13of19.bin", "group1-shard14of19.bin", "group1-shard15of19.bin", "group1-shard16of19.bin", "group1-shard17of19.bin", "group1-shard18of19.bin", "group1-shard19of19.bin"], "weights": [{"name": "dense/kernel", "shape": [2, 1], "dtype": "float32"}, {"name": "dense/bias", "shape": [1], "dtype": "float32"}, {"name": "dense_1/kernel", "shape": [73170, 256], "dtype": "float32"}, {"name": "dense_1/bias", "shape": [256], "dtype": "float32"}, {"name": "dense_2/kernel", "shape": [256, 256], "dtype": "float32"}, {"name": "dense_2/bias", "shape": [256], "dtype": "float32"}, {"name": "dense_3/kernel", "shape": [256, 256], "dtype": "float32"}, {"name": "dense_3/bias", "shape": [256], "dtype": "float32"}, {"name": "dense_4/kernel", "shape": [256, 1], "dtype": "float32"}, {"name": "dense_4/bias", "shape": [1], "dtype": "float32"}, {"name": "embedding/embeddings", "shape": [2, 1], "dtype": "float32"}, {"name": "embedding_1/embeddings", "shape": [2, 1], "dtype": "float32"}, {"name": "embedding_10/embeddings", "shape": [2, 1], "dtype": "float32"}, {"name": "embedding_100/embeddings", "shape": [2, 1], "dtype": "float32"}, {"name": "embedding_101/embeddings", "shape": [2, 1], "dtype": "float32"}, {"name": "embedding_102/embeddings", "shape": [2, 1], "dtype": "float32"}, {"name": "embedding_103/embeddings", "shape": [2, 1], "dtype": "float32"}, {"name": "embedding_104/embeddings", "shape": [2, 1], "dtype": "float32"}, {"name": "embedding_105/embeddings", "shape": [2, 1], "dtype": "float32"}, {"name": "embedding_106/embeddings", "shape": [2, 1], "dtype": "float32"}, {"name": "embedding_107/embeddings", "shape": [2, 1], "dtype": "float32"}, {"name": "embedding_108/embeddings", "shape": [2, 1], "dtype": "float32"}, {"name": "embedding_109/embeddings", "shape": [2, 1], "dtype": "float32"}, {"name": "embedding_11/embeddings", "shape": [2, 1], "dtype": "float32"}, {"name": "embedding_110/embeddings", "shape": [2, 1], "dtype": "float32"}, {"name": "embedding_111/embeddings", "shape": [2, 1], "dtype": "float32"}, {"name": "embedding_112/embeddings", "shape": [2, 1], "dtype": "float32"}, {"name": "embedding_113/embeddings", "shape": [2, 1], "dtype": "float32"}, {"name": "embedding_114/embeddings", "shape": [2, 1], "dtype": "float32"}, {"name": "embedding_115/embeddings", "shape": [2, 1], "dtype": "float32"}, {"name": "embedding_116/embeddings", "shape": [2, 1], "dtype": "float32"}, {"name": "embedding_117/embeddings", "shape": [2, 1], "dtype": "float32"}, {"name": "embedding_118/embeddings", "shape": [2, 1], "dtype": "float32"}, {"name": "embedding_119/embeddings", "shape": [2, 1], "dtype": "float32"}, {"name": "embedding_12/embeddings", "shape": [2, 1], "dtype": "float32"}, {"name": "embedding_120/embeddings", "shape": [2, 1], "dtype": "float32"}, {"name": "embedding_121/embeddings", "shape": [2, 1], "dtype": "float32"}, {"name": "embedding_122/embeddings", "shape": [2, 1], "dtype": "float32"}, {"name": "embedding_123/embeddings", "shape": [2, 1], "dtype": "float32"}, {"name": "embedding_124/embeddings", "shape": [2, 1], "dtype": "float32"}, {"name": "embedding_125/embeddings", "shape": [2, 1], "dtype": "float32"}, {"name": "embedding_126/embeddings", "shape": [2, 1], "dtype": "float32"}, {"name": "embedding_127/embeddings", "shape": [2, 1], "dtype": "float32"}, {"name": "embedding_128/embeddings", "shape": [2, 1], "dtype": "float32"}, {"name": "embedding_129/embeddings", "shape": [2, 1], "dtype": "float32"}, {"name": "embedding_13/embeddings", "shape": [2, 1], "dtype": "float32"}, {"name": "embedding_130/embeddings", "shape": [2, 1], "dtype": "float32"}, {"name": "embedding_131/embeddings", "shape": [2, 1], "dtype": "float32"}, {"name": "embedding_132/embeddings", "shape": [2, 1], "dtype": "float32"}, {"name": "embedding_133/embeddings", "shape": [2, 1], "dtype": "float32"}, {"name": "embedding_134/embeddings", "shape": [2, 1], "dtype": "float32"}, {"name": "embedding_135/embeddings", "shape": [2, 1], "dtype": "float32"}, {"name": "embedding_136/embeddings", "shape": [2, 1], "dtype": "float32"}, {"name": "embedding_137/embeddings", "shape": [2, 1], "dtype": "float32"}, {"name": "embedding_138/embeddings", "shape": [2, 1], "dtype": "float32"}, {"name": "embedding_139/embeddings", "shape": [2, 1], "dtype": "float32"}, {"name": "embedding_14/embeddings", "shape": [2, 1], "dtype": "float32"}, {"name": "embedding_140/embeddings", "shape": [2, 1], "dtype": "float32"}, {"name": "embedding_141/embeddings", "shape": [2, 1], "dtype": "float32"}, {"name": "embedding_142/embeddings", "shape": [2, 1], "dtype": "float32"}, {"name": "embedding_143/embeddings", "shape": [2, 1], "dtype": "float32"}, {"name": "embedding_144/embeddings", "shape": [2, 1], "dtype": "float32"}, {"name": "embedding_145/embeddings", "shape": [2, 1], "dtype": "float32"}, {"name": "embedding_146/embeddings", "shape": [2, 1], "dtype": "float32"}, {"name": "embedding_147/embeddings", "shape": [2, 1], "dtype": "float32"}, {"name": "embedding_148/embeddings", "shape": [2, 1], "dtype": "float32"}, {"name": "embedding_149/embeddings", "shape": [2, 1], "dtype": "float32"}, {"name": "embedding_15/embeddings", "shape": [2, 1], "dtype": "float32"}, {"name": "embedding_150/embeddings", "shape": [2, 1], "dtype": "float32"}, {"name": "embedding_151/embeddings", "shape": [2, 1], "dtype": "float32"}, {"name": "embedding_152/embeddings", "shape": [2, 1], "dtype": "float32"}, {"name": "embedding_153/embeddings", "shape": [2, 1], "dtype": "float32"}, {"name": "embedding_154/embeddings", "shape": [2, 1], "dtype": "float32"}, {"name": "embedding_155/embeddings", "shape": [2, 1], "dtype": "float32"}, {"name": "embedding_156/embeddings", "shape": [2, 1], "dtype": "float32"}, {"name": "embedding_157/embeddings", "shape": [2, 1], "dtype": "float32"}, {"name": "embedding_158/embeddings", "shape": [2, 1], "dtype": "float32"}, {"name": "embedding_159/embeddings", "shape": [2, 1], "dtype": "float32"}, {"name": "embedding_16/embeddings", "shape": [2, 1], "dtype": "float32"}, {"name": "embedding_160/embeddings", "shape": [2, 1], "dtype": "float32"}, {"name": "embedding_161/embeddings", "shape": [2, 1], "dtype": "float32"}, {"name": "embedding_162/embeddings", "shape": [2, 1], "dtype": "float32"}, {"name": "embedding_163/embeddings", "shape": [2, 1], "dtype": "float32"}, {"name": "embedding_164/embeddings", "shape": [2, 1], "dtype": "float32"}, {"name": "embedding_165/embeddings", "shape": [2, 1], "dtype": "float32"}, {"name": "embedding_166/embeddings", "shape": [2, 1], "dtype": "float32"}, {"name": "embedding_167/embeddings", "shape": [2, 1], "dtype": "float32"}, {"name": "embedding_168/embeddings", "shape": [2, 1], "dtype": "float32"}, {"name": "embedding_169/embeddings", "shape": [2, 1], "dtype": "float32"}, {"name": "embedding_17/embeddings", "shape": [2, 1], "dtype": "float32"}, {"name": "embedding_170/embeddings", "shape": [2, 1], "dtype": "float32"}, {"name": "embedding_171/embeddings", "shape": [2, 1], "dtype": "float32"}, {"name": "embedding_172/embeddings", "shape": [2, 1], "dtype": "float32"}, {"name": "embedding_173/embeddings", "shape": [2, 1], "dtype": "float32"}, {"name": "embedding_174/embeddings", "shape": [2, 1], "dtype": "float32"}, {"name": "embedding_175/embeddings", "shape": [2, 1], "dtype": "float32"}, {"name": "embedding_176/embeddings", "shape": [2, 1], "dtype": "float32"}, {"name": "embedding_177/embeddings", "shape": [2, 1], "dtype": "float32"}, {"name": "embedding_178/embeddings", "shape": [2, 1], "dtype": "float32"}, {"name": "embedding_179/embeddings", "shape": [2, 1], "dtype": "float32"}, {"name": "embedding_18/embeddings", "shape": [2, 1], "dtype": "float32"}, {"name": "embedding_180/embeddings", "shape": [2, 1], "dtype": "float32"}, {"name": "embedding_181/embeddings", "shape": [2, 1], "dtype": "float32"}, {"name": "embedding_182/embeddings", "shape": [2, 1], "dtype": "float32"}, {"name": "embedding_183/embeddings", "shape": [2, 1], "dtype": "float32"}, {"name": "embedding_184/embeddings", "shape": [2, 1], "dtype": "float32"}, {"name": "embedding_185/embeddings", "shape": [2, 1], "dtype": "float32"}, {"name": "embedding_186/embeddings", "shape": [2, 1], "dtype": "float32"}, {"name": "embedding_187/embeddings", "shape": [2, 1], "dtype": "float32"}, {"name": "embedding_188/embeddings", "shape": [2, 1], "dtype": "float32"}, {"name": "embedding_189/embeddings", "shape": [2, 1], "dtype": "float32"}, {"name": "embedding_19/embeddings", "shape": [2, 1], "dtype": "float32"}, {"name": "embedding_190/embeddings", "shape": [2, 1], "dtype": "float32"}, {"name": "embedding_191/embeddings", "shape": [2, 1], "dtype": "float32"}, {"name": "embedding_192/embeddings", "shape": [2, 1], "dtype": "float32"}, {"name": "embedding_193/embeddings", "shape": [2, 1], "dtype": "float32"}, {"name": "embedding_194/embeddings", "shape": [2, 1], "dtype": "float32"}, {"name": "embedding_195/embeddings", "shape": [2, 1], "dtype": "float32"}, {"name": "embedding_196/embeddings", "shape": [2, 1], "dtype": "float32"}, {"name": "embedding_197/embeddings", "shape": [2, 1], "dtype": "float32"}, {"name": "embedding_198/embeddings", "shape": [2, 1], "dtype": "float32"}, {"name": "embedding_199/embeddings", "shape": [2, 1], "dtype": "float32"}, {"name": "embedding_2/embeddings", "shape": [2, 1], "dtype": "float32"}, {"name": "embedding_20/embeddings", "shape": [2, 1], "dtype": "float32"}, {"name": "embedding_200/embeddings", "shape": [2, 1], "dtype": "float32"}, {"name": "embedding_201/embeddings", "shape": [2, 1], "dtype": "float32"}, {"name": "embedding_202/embeddings", "shape": [2, 1], "dtype": "float32"}, {"name": "embedding_203/embeddings", "shape": [2, 1], "dtype": "float32"}, {"name": "embedding_204/embeddings", "shape": [2, 1], "dtype": "float32"}, {"name": "embedding_205/embeddings", "shape": [2, 1], "dtype": "float32"}, {"name": "embedding_206/embeddings", "shape": [2, 1], "dtype": "float32"}, {"name": "embedding_207/embeddings", "shape": [2, 1], "dtype": "float32"}, {"name": "embedding_208/embeddings", "shape": [2, 1], "dtype": "float32"}, {"name": "embedding_209/embeddings", "shape": [2, 1], "dtype": "float32"}, {"name": "embedding_21/embeddings", "shape": [2, 1], "dtype": "float32"}, {"name": "embedding_210/embeddings", "shape": [2, 1], "dtype": "float32"}, {"name": "embedding_211/embeddings", "shape": [2, 1], "dtype": "float32"}, {"name": "embedding_212/embeddings", "shape": [2, 1], "dtype": "float32"}, {"name": "embedding_213/embeddings", "shape": [2, 1], "dtype": "float32"}, {"name": "embedding_214/embeddings", "shape": [2, 1], "dtype": "float32"}, {"name": "embedding_215/embeddings", "shape": [2, 1], "dtype": "float32"}, {"name": "embedding_216/embeddings", "shape": [2, 1], "dtype": "float32"}, {"name": "embedding_217/embeddings", "shape": [2, 1], "dtype": "float32"}, {"name": "embedding_218/embeddings", "shape": [2, 1], "dtype": "float32"}, {"name": "embedding_219/embeddings", "shape": [2, 1], "dtype": "float32"}, {"name": "embedding_22/embeddings", "shape": [2, 1], "dtype": "float32"}, {"name": "embedding_220/embeddings", "shape": [2, 1], "dtype": "float32"}, {"name": "embedding_221/embeddings", "shape": [2, 1], "dtype": "float32"}, {"name": "embedding_222/embeddings", "shape": [2, 1], "dtype": "float32"}, {"name": "embedding_223/embeddings", "shape": [2, 1], "dtype": "float32"}, {"name": "embedding_224/embeddings", "shape": [2, 1], "dtype": "float32"}, {"name": "embedding_225/embeddings", "shape": [2, 1], "dtype": "float32"}, {"name": "embedding_226/embeddings", "shape": [2, 1], "dtype": "float32"}, {"name": "embedding_227/embeddings", "shape": [2, 1], "dtype": "float32"}, {"name": "embedding_228/embeddings", "shape": [2, 1], "dtype": "float32"}, {"name": "embedding_229/embeddings", "shape": [2, 1], "dtype": "float32"}, {"name": "embedding_23/embeddings", "shape": [2, 1], "dtype": "float32"}, {"name": "embedding_230/embeddings", "shape": [2, 1], "dtype": "float32"}, {"name": "embedding_231/embeddings", "shape": [2, 1], "dtype": "float32"}, {"name": "embedding_232/embeddings", "shape": [2, 1], "dtype": "float32"}, {"name": "embedding_233/embeddings", "shape": [2, 1], "dtype": "float32"}, {"name": "embedding_234/embeddings", "shape": [2, 1], "dtype": "float32"}, {"name": "embedding_235/embeddings", "shape": [2, 1], "dtype": "float32"}, {"name": "embedding_236/embeddings", "shape": [2, 1], "dtype": "float32"}, {"name": "embedding_237/embeddings", "shape": [2, 1], "dtype": "float32"}, {"name": "embedding_238/embeddings", "shape": [2, 1], "dtype": "float32"}, {"name": "embedding_239/embeddings", "shape": [2, 1], "dtype": "float32"}, {"name": "embedding_24/embeddings", "shape": [2, 1], "dtype": "float32"}, {"name": "embedding_240/embeddings", "shape": [2, 1], "dtype": "float32"}, {"name": "embedding_241/embeddings", "shape": [2, 1], "dtype": "float32"}, {"name": "embedding_242/embeddings", "shape": [2, 1], "dtype": "float32"}, {"name": "embedding_243/embeddings", "shape": [2, 1], "dtype": "float32"}, {"name": "embedding_244/embeddings", "shape": [2, 1], "dtype": "float32"}, {"name": "embedding_245/embeddings", "shape": [2, 1], "dtype": "float32"}, {"name": "embedding_246/embeddings", "shape": [2, 1], "dtype": "float32"}, {"name": "embedding_247/embeddings", "shape": [2, 1], "dtype": "float32"}, {"name": "embedding_248/embeddings", "shape": [2, 1], "dtype": "float32"}, {"name": "embedding_249/embeddings", "shape": [2, 1], "dtype": "float32"}, {"name": "embedding_25/embeddings", "shape": [2, 1], "dtype": "float32"}, {"name": "embedding_250/embeddings", "shape": [2, 1], "dtype": "float32"}, {"name": "embedding_251/embeddings", "shape": [2, 1], "dtype": "float32"}, {"name": "embedding_252/embeddings", "shape": [2, 1], "dtype": "float32"}, {"name": "embedding_253/embeddings", "shape": [2, 1], "dtype": "float32"}, {"name": "embedding_254/embeddings", "shape": [2, 1], "dtype": "float32"}, {"name": "embedding_255/embeddings", "shape": [2, 1], "dtype": "float32"}, {"name": "embedding_256/embeddings", "shape": [2, 1], "dtype": "float32"}, {"name": "embedding_257/embeddings", "shape": [2, 1], "dtype": "float32"}, {"name": "embedding_258/embeddings", "shape": [2, 1], "dtype": "float32"}, {"name": "embedding_259/embeddings", "shape": [2, 1], "dtype": "float32"}, {"name": "embedding_26/embeddings", "shape": [2, 1], "dtype": "float32"}, {"name": "embedding_260/embeddings", "shape": [2, 1], "dtype": "float32"}, {"name": "embedding_261/embeddings", "shape": [2, 1], "dtype": "float32"}, {"name": "embedding_262/embeddings", "shape": [2, 1], "dtype": "float32"}, {"name": "embedding_263/embeddings", "shape": [2, 1], "dtype": "float32"}, {"name": "embedding_264/embeddings", "shape": [2, 1], "dtype": "float32"}, {"name": "embedding_265/embeddings", "shape": [2, 1], "dtype": "float32"}, {"name": "embedding_266/embeddings", "shape": [2, 1], "dtype": "float32"}, {"name": "embedding_267/embeddings", "shape": [2, 1], "dtype": "float32"}, {"name": "embedding_268/embeddings", "shape": [2, 1], "dtype": "float32"}, {"name": "embedding_269/embeddings", "shape": [2, 1], "dtype": "float32"}, {"name": "embedding_27/embeddings", "shape": [2, 1], "dtype": "float32"}, {"name": "embedding_270/embeddings", "shape": [2, 271], "dtype": "float32"}, {"name": "embedding_271/embeddings", "shape": [2, 271], "dtype": "float32"}, {"name": "embedding_272/embeddings", "shape": [2, 271], "dtype": "float32"}, {"name": "embedding_273/embeddings", "shape": [2, 271], "dtype": "float32"}, {"name": "embedding_274/embeddings", "shape": [2, 271], "dtype": "float32"}, {"name": "embedding_275/embeddings", "shape": [2, 271], "dtype": "float32"}, {"name": "embedding_276/embeddings", "shape": [2, 271], "dtype": "float32"}, {"name": "embedding_277/embeddings", "shape": [2, 271], "dtype": "float32"}, {"name": "embedding_278/embeddings", "shape": [2, 271], "dtype": "float32"}, {"name": "embedding_279/embeddings", "shape": [2, 271], "dtype": "float32"}, {"name": "embedding_28/embeddings", "shape": [2, 1], "dtype": "float32"}, {"name": "embedding_280/embeddings", "shape": [2, 271], "dtype": "float32"}, {"name": "embedding_281/embeddings", "shape": [2, 271], "dtype": "float32"}, {"name": "embedding_282/embeddings", "shape": [2, 271], "dtype": "float32"}, {"name": "embedding_283/embeddings", "shape": [2, 271], "dtype": "float32"}, {"name": "embedding_284/embeddings", "shape": [2, 271], "dtype": "float32"}, {"name": "embedding_285/embeddings", "shape": [2, 271], "dtype": "float32"}, {"name": "embedding_286/embeddings", "shape": [2, 271], "dtype": "float32"}, {"name": "embedding_287/embeddings", "shape": [2, 271], "dtype": "float32"}, {"name": "embedding_288/embeddings", "shape": [2, 271], "dtype": "float32"}, {"name": "embedding_289/embeddings", "shape": [2, 271], "dtype": "float32"}, {"name": "embedding_29/embeddings", "shape": [2, 1], "dtype": "float32"}, {"name": "embedding_290/embeddings", "shape": [2, 271], "dtype": "float32"}, {"name": "embedding_291/embeddings", "shape": [2, 271], "dtype": "float32"}, {"name": "embedding_292/embeddings", "shape": [2, 271], "dtype": "float32"}, {"name": "embedding_293/embeddings", "shape": [2, 271], "dtype": "float32"}, {"name": "embedding_294/embeddings", "shape": [2, 271], "dtype": "float32"}, {"name": "embedding_295/embeddings", "shape": [2, 271], "dtype": "float32"}, {"name": "embedding_296/embeddings", "shape": [2, 271], "dtype": "float32"}, {"name": "embedding_297/embeddings", "shape": [2, 271], "dtype": "float32"}, {"name": "embedding_298/embeddings", "shape": [2, 271], "dtype": "float32"}, {"name": "embedding_299/embeddings", "shape": [2, 271], "dtype": "float32"}, {"name": "embedding_3/embeddings", "shape": [2, 1], "dtype": "float32"}, {"name": "embedding_30/embeddings", "shape": [2, 1], "dtype": "float32"}, {"name": "embedding_300/embeddings", "shape": [2, 271], "dtype": "float32"}, {"name": "embedding_301/embeddings", "shape": [2, 271], "dtype": "float32"}, {"name": "embedding_302/embeddings", "shape": [2, 271], "dtype": "float32"}, {"name": "embedding_303/embeddings", "shape": [2, 271], "dtype": "float32"}, {"name": "embedding_304/embeddings", "shape": [2, 271], "dtype": "float32"}, {"name": "embedding_305/embeddings", "shape": [2, 271], "dtype": "float32"}, {"name": "embedding_306/embeddings", "shape": [2, 271], "dtype": "float32"}, {"name": "embedding_307/embeddings", "shape": [2, 271], "dtype": "float32"}, {"name": "embedding_308/embeddings", "shape": [2, 271], "dtype": "float32"}, {"name": "embedding_309/embeddings", "shape": [2, 271], "dtype": "float32"}, {"name": "embedding_31/embeddings", "shape": [2, 1], "dtype": "float32"}, {"name": "embedding_310/embeddings", "shape": [2, 271], "dtype": "float32"}, {"name": "embedding_311/embeddings", "shape": [2, 271], "dtype": "float32"}, {"name": "embedding_312/embeddings", "shape": [2, 271], "dtype": "float32"}, {"name": "embedding_313/embeddings", "shape": [2, 271], "dtype": "float32"}, {"name": "embedding_314/embeddings", "shape": [2, 271], "dtype": "float32"}, {"name": "embedding_315/embeddings", "shape": [2, 271], "dtype": "float32"}, {"name": "embedding_316/embeddings", "shape": [2, 271], "dtype": "float32"}, {"name": "embedding_317/embeddings", "shape": [2, 271], "dtype": "float32"}, {"name": "embedding_318/embeddings", "shape": [2, 271], "dtype": "float32"}, {"name": "embedding_319/embeddings", "shape": [2, 271], "dtype": "float32"}, {"name": "embedding_32/embeddings", "shape": [2, 1], "dtype": "float32"}, {"name": "embedding_320/embeddings", "shape": [2, 271], "dtype": "float32"}, {"name": "embedding_321/embeddings", "shape": [2, 271], "dtype": "float32"}, {"name": "embedding_322/embeddings", "shape": [2, 271], "dtype": "float32"}, {"name": "embedding_323/embeddings", "shape": [2, 271], "dtype": "float32"}, {"name": "embedding_324/embeddings", "shape": [2, 271], "dtype": "float32"}, {"name": "embedding_325/embeddings", "shape": [2, 271], "dtype": "float32"}, {"name": "embedding_326/embeddings", "shape": [2, 271], "dtype": "float32"}, {"name": "embedding_327/embeddings", "shape": [2, 271], "dtype": "float32"}, {"name": "embedding_328/embeddings", "shape": [2, 271], "dtype": "float32"}, {"name": "embedding_329/embeddings", "shape": [2, 271], "dtype": "float32"}, {"name": "embedding_33/embeddings", "shape": [2, 1], "dtype": "float32"}, {"name": "embedding_330/embeddings", "shape": [2, 271], "dtype": "float32"}, {"name": "embedding_331/embeddings", "shape": [2, 271], "dtype": "float32"}, {"name": "embedding_332/embeddings", "shape": [2, 271], "dtype": "float32"}, {"name": "embedding_333/embeddings", "shape": [2, 271], "dtype": "float32"}, {"name": "embedding_334/embeddings", "shape": [2, 271], "dtype": "float32"}, {"name": "embedding_335/embeddings", "shape": [2, 271], "dtype": "float32"}, {"name": "embedding_336/embeddings", "shape": [2, 271], "dtype": "float32"}, {"name": "embedding_337/embeddings", "shape": [2, 271], "dtype": "float32"}, {"name": "embedding_338/embeddings", "shape": [2, 271], "dtype": "float32"}, {"name": "embedding_339/embeddings", "shape": [2, 271], "dtype": "float32"}, {"name": "embedding_34/embeddings", "shape": [2, 1], "dtype": "float32"}, {"name": "embedding_340/embeddings", "shape": [2, 271], "dtype": "float32"}, {"name": "embedding_341/embeddings", "shape": [2, 271], "dtype": "float32"}, {"name": "embedding_342/embeddings", "shape": [2, 271], "dtype": "float32"}, {"name": "embedding_343/embeddings", "shape": [2, 271], "dtype": "float32"}, {"name": "embedding_344/embeddings", "shape": [2, 271], "dtype": "float32"}, {"name": "embedding_345/embeddings", "shape": [2, 271], "dtype": "float32"}, {"name": "embedding_346/embeddings", "shape": [2, 271], "dtype": "float32"}, {"name": "embedding_347/embeddings", "shape": [2, 271], "dtype": "float32"}, {"name": "embedding_348/embeddings", "shape": [2, 271], "dtype": "float32"}, {"name": "embedding_349/embeddings", "shape": [2, 271], "dtype": "float32"}, {"name": "embedding_35/embeddings", "shape": [2, 1], "dtype": "float32"}, {"name": "embedding_350/embeddings", "shape": [2, 271], "dtype": "float32"}, {"name": "embedding_351/embeddings", "shape": [2, 271], "dtype": "float32"}, {"name": "embedding_352/embeddings", "shape": [2, 271], "dtype": "float32"}, {"name": "embedding_353/embeddings", "shape": [2, 271], "dtype": "float32"}, {"name": "embedding_354/embeddings", "shape": [2, 271], "dtype": "float32"}, {"name": "embedding_355/embeddings", "shape": [2, 271], "dtype": "float32"}, {"name": "embedding_356/embeddings", "shape": [2, 271], "dtype": "float32"}, {"name": "embedding_357/embeddings", "shape": [2, 271], "dtype": "float32"}, {"name": "embedding_358/embeddings", "shape": [2, 271], "dtype": "float32"}, {"name": "embedding_359/embeddings", "shape": [2, 271], "dtype": "float32"}, {"name": "embedding_36/embeddings", "shape": [2, 1], "dtype": "float32"}, {"name": "embedding_360/embeddings", "shape": [2, 271], "dtype": "float32"}, {"name": "embedding_361/embeddings", "shape": [2, 271], "dtype": "float32"}, {"name": "embedding_362/embeddings", "shape": [2, 271], "dtype": "float32"}, {"name": "embedding_363/embeddings", "shape": [2, 271], "dtype": "float32"}, {"name": "embedding_364/embeddings", "shape": [2, 271], "dtype": "float32"}, {"name": "embedding_365/embeddings", "shape": [2, 271], "dtype": "float32"}, {"name": "embedding_366/embeddings", "shape": [2, 271], "dtype": "float32"}, {"name": "embedding_367/embeddings", "shape": [2, 271], "dtype": "float32"}, {"name": "embedding_368/embeddings", "shape": [2, 271], "dtype": "float32"}, {"name": "embedding_369/embeddings", "shape": [2, 271], "dtype": "float32"}, {"name": "embedding_37/embeddings", "shape": [2, 1], "dtype": "float32"}, {"name": "embedding_370/embeddings", "shape": [2, 271], "dtype": "float32"}, {"name": "embedding_371/embeddings", "shape": [2, 271], "dtype": "float32"}, {"name": "embedding_372/embeddings", "shape": [2, 271], "dtype": "float32"}, {"name": "embedding_373/embeddings", "shape": [2, 271], "dtype": "float32"}, {"name": "embedding_374/embeddings", "shape": [2, 271], "dtype": "float32"}, {"name": "embedding_375/embeddings", "shape": [2, 271], "dtype": "float32"}, {"name": "embedding_376/embeddings", "shape": [2, 271], "dtype": "float32"}, {"name": "embedding_377/embeddings", "shape": [2, 271], "dtype": "float32"}, {"name": "embedding_378/embeddings", "shape": [2, 271], "dtype": "float32"}, {"name": "embedding_379/embeddings", "shape": [2, 271], "dtype": "float32"}, {"name": "embedding_38/embeddings", "shape": [2, 1], "dtype": "float32"}, {"name": "embedding_380/embeddings", "shape": [2, 271], "dtype": "float32"}, {"name": "embedding_381/embeddings", "shape": [2, 271], "dtype": "float32"}, {"name": "embedding_382/embeddings", "shape": [2, 271], "dtype": "float32"}, {"name": "embedding_383/embeddings", "shape": [2, 271], "dtype": "float32"}, {"name": "embedding_384/embeddings", "shape": [2, 271], "dtype": "float32"}, {"name": "embedding_385/embeddings", "shape": [2, 271], "dtype": "float32"}, {"name": "embedding_386/embeddings", "shape": [2, 271], "dtype": "float32"}, {"name": "embedding_387/embeddings", "shape": [2, 271], "dtype": "float32"}, {"name": "embedding_388/embeddings", "shape": [2, 271], "dtype": "float32"}, {"name": "embedding_389/embeddings", "shape": [2, 271], "dtype": "float32"}, {"name": "embedding_39/embeddings", "shape": [2, 1], "dtype": "float32"}, {"name": "embedding_390/embeddings", "shape": [2, 271], "dtype": "float32"}, {"name": "embedding_391/embeddings", "shape": [2, 271], "dtype": "float32"}, {"name": "embedding_392/embeddings", "shape": [2, 271], "dtype": "float32"}, {"name": "embedding_393/embeddings", "shape": [2, 271], "dtype": "float32"}, {"name": "embedding_394/embeddings", "shape": [2, 271], "dtype": "float32"}, {"name": "embedding_395/embeddings", "shape": [2, 271], "dtype": "float32"}, {"name": "embedding_396/embeddings", "shape": [2, 271], "dtype": "float32"}, {"name": "embedding_397/embeddings", "shape": [2, 271], "dtype": "float32"}, {"name": "embedding_398/embeddings", "shape": [2, 271], "dtype": "float32"}, {"name": "embedding_399/embeddings", "shape": [2, 271], "dtype": "float32"}, {"name": "embedding_4/embeddings", "shape": [2, 1], "dtype": "float32"}, {"name": "embedding_40/embeddings", "shape": [2, 1], "dtype": "float32"}, {"name": "embedding_400/embeddings", "shape": [2, 271], "dtype": "float32"}, {"name": "embedding_401/embeddings", "shape": [2, 271], "dtype": "float32"}, {"name": "embedding_402/embeddings", "shape": [2, 271], "dtype": "float32"}, {"name": "embedding_403/embeddings", "shape": [2, 271], "dtype": "float32"}, {"name": "embedding_404/embeddings", "shape": [2, 271], "dtype": "float32"}, {"name": "embedding_405/embeddings", "shape": [2, 271], "dtype": "float32"}, {"name": "embedding_406/embeddings", "shape": [2, 271], "dtype": "float32"}, {"name": "embedding_407/embeddings", "shape": [2, 271], "dtype": "float32"}, {"name": "embedding_408/embeddings", "shape": [2, 271], "dtype": "float32"}, {"name": "embedding_409/embeddings", "shape": [2, 271], "dtype": "float32"}, {"name": "embedding_41/embeddings", "shape": [2, 1], "dtype": "float32"}, {"name": "embedding_410/embeddings", "shape": [2, 271], "dtype": "float32"}, {"name": "embedding_411/embeddings", "shape": [2, 271], "dtype": "float32"}, {"name": "embedding_412/embeddings", "shape": [2, 271], "dtype": "float32"}, {"name": "embedding_413/embeddings", "shape": [2, 271], "dtype": "float32"}, {"name": "embedding_414/embeddings", "shape": [2, 271], "dtype": "float32"}, {"name": "embedding_415/embeddings", "shape": [2, 271], "dtype": "float32"}, {"name": "embedding_416/embeddings", "shape": [2, 271], "dtype": "float32"}, {"name": "embedding_417/embeddings", "shape": [2, 271], "dtype": "float32"}, {"name": "embedding_418/embeddings", "shape": [2, 271], "dtype": "float32"}, {"name": "embedding_419/embeddings", "shape": [2, 271], "dtype": "float32"}, {"name": "embedding_42/embeddings", "shape": [2, 1], "dtype": "float32"}, {"name": "embedding_420/embeddings", "shape": [2, 271], "dtype": "float32"}, {"name": "embedding_421/embeddings", "shape": [2, 271], "dtype": "float32"}, {"name": "embedding_422/embeddings", "shape": [2, 271], "dtype": "float32"}, {"name": "embedding_423/embeddings", "shape": [2, 271], "dtype": "float32"}, {"name": "embedding_424/embeddings", "shape": [2, 271], "dtype": "float32"}, {"name": "embedding_425/embeddings", "shape": [2, 271], "dtype": "float32"}, {"name": "embedding_426/embeddings", "shape": [2, 271], "dtype": "float32"}, {"name": "embedding_427/embeddings", "shape": [2, 271], "dtype": "float32"}, {"name": "embedding_428/embeddings", "shape": [2, 271], "dtype": "float32"}, {"name": "embedding_429/embeddings", "shape": [2, 271], "dtype": "float32"}, {"name": "embedding_43/embeddings", "shape": [2, 1], "dtype": "float32"}, {"name": "embedding_430/embeddings", "shape": [2, 271], "dtype": "float32"}, {"name": "embedding_431/embeddings", "shape": [2, 271], "dtype": "float32"}, {"name": "embedding_432/embeddings", "shape": [2, 271], "dtype": "float32"}, {"name": "embedding_433/embeddings", "shape": [2, 271], "dtype": "float32"}, {"name": "embedding_434/embeddings", "shape": [2, 271], "dtype": "float32"}, {"name": "embedding_435/embeddings", "shape": [2, 271], "dtype": "float32"}, {"name": "embedding_436/embeddings", "shape": [2, 271], "dtype": "float32"}, {"name": "embedding_437/embeddings", "shape": [2, 271], "dtype": "float32"}, {"name": "embedding_438/embeddings", "shape": [2, 271], "dtype": "float32"}, {"name": "embedding_439/embeddings", "shape": [2, 271], "dtype": "float32"}, {"name": "embedding_44/embeddings", "shape": [2, 1], "dtype": "float32"}, {"name": "embedding_440/embeddings", "shape": [2, 271], "dtype": "float32"}, {"name": "embedding_441/embeddings", "shape": [2, 271], "dtype": "float32"}, {"name": "embedding_442/embeddings", "shape": [2, 271], "dtype": "float32"}, {"name": "embedding_443/embeddings", "shape": [2, 271], "dtype": "float32"}, {"name": "embedding_444/embeddings", "shape": [2, 271], "dtype": "float32"}, {"name": "embedding_445/embeddings", "shape": [2, 271], "dtype": "float32"}, {"name": "embedding_446/embeddings", "shape": [2, 271], "dtype": "float32"}, {"name": "embedding_447/embeddings", "shape": [2, 271], "dtype": "float32"}, {"name": "embedding_448/embeddings", "shape": [2, 271], "dtype": "float32"}, {"name": "embedding_449/embeddings", "shape": [2, 271], "dtype": "float32"}, {"name": "embedding_45/embeddings", "shape": [2, 1], "dtype": "float32"}, {"name": "embedding_450/embeddings", "shape": [2, 271], "dtype": "float32"}, {"name": "embedding_451/embeddings", "shape": [2, 271], "dtype": "float32"}, {"name": "embedding_452/embeddings", "shape": [2, 271], "dtype": "float32"}, {"name": "embedding_453/embeddings", "shape": [2, 271], "dtype": "float32"}, {"name": "embedding_454/embeddings", "shape": [2, 271], "dtype": "float32"}, {"name": "embedding_455/embeddings", "shape": [2, 271], "dtype": "float32"}, {"name": "embedding_456/embeddings", "shape": [2, 271], "dtype": "float32"}, {"name": "embedding_457/embeddings", "shape": [2, 271], "dtype": "float32"}, {"name": "embedding_458/embeddings", "shape": [2, 271], "dtype": "float32"}, {"name": "embedding_459/embeddings", "shape": [2, 271], "dtype": "float32"}, {"name": "embedding_46/embeddings", "shape": [2, 1], "dtype": "float32"}, {"name": "embedding_460/embeddings", "shape": [2, 271], "dtype": "float32"}, {"name": "embedding_461/embeddings", "shape": [2, 271], "dtype": "float32"}, {"name": "embedding_462/embeddings", "shape": [2, 271], "dtype": "float32"}, {"name": "embedding_463/embeddings", "shape": [2, 271], "dtype": "float32"}, {"name": "embedding_464/embeddings", "shape": [2, 271], "dtype": "float32"}, {"name": "embedding_465/embeddings", "shape": [2, 271], "dtype": "float32"}, {"name": "embedding_466/embeddings", "shape": [2, 271], "dtype": "float32"}, {"name": "embedding_467/embeddings", "shape": [2, 271], "dtype": "float32"}, {"name": "embedding_468/embeddings", "shape": [2, 271], "dtype": "float32"}, {"name": "embedding_469/embeddings", "shape": [2, 271], "dtype": "float32"}, {"name": "embedding_47/embeddings", "shape": [2, 1], "dtype": "float32"}, {"name": "embedding_470/embeddings", "shape": [2, 271], "dtype": "float32"}, {"name": "embedding_471/embeddings", "shape": [2, 271], "dtype": "float32"}, {"name": "embedding_472/embeddings", "shape": [2, 271], "dtype": "float32"}, {"name": "embedding_473/embeddings", "shape": [2, 271], "dtype": "float32"}, {"name": "embedding_474/embeddings", "shape": [2, 271], "dtype": "float32"}, {"name": "embedding_475/embeddings", "shape": [2, 271], "dtype": "float32"}, {"name": "embedding_476/embeddings", "shape": [2, 271], "dtype": "float32"}, {"name": "embedding_477/embeddings", "shape": [2, 271], "dtype": "float32"}, {"name": "embedding_478/embeddings", "shape": [2, 271], "dtype": "float32"}, {"name": "embedding_479/embeddings", "shape": [2, 271], "dtype": "float32"}, {"name": "embedding_48/embeddings", "shape": [2, 1], "dtype": "float32"}, {"name": "embedding_480/embeddings", "shape": [2, 271], "dtype": "float32"}, {"name": "embedding_481/embeddings", "shape": [2, 271], "dtype": "float32"}, {"name": "embedding_482/embeddings", "shape": [2, 271], "dtype": "float32"}, {"name": "embedding_483/embeddings", "shape": [2, 271], "dtype": "float32"}, {"name": "embedding_484/embeddings", "shape": [2, 271], "dtype": "float32"}, {"name": "embedding_485/embeddings", "shape": [2, 271], "dtype": "float32"}, {"name": "embedding_486/embeddings", "shape": [2, 271], "dtype": "float32"}, {"name": "embedding_487/embeddings", "shape": [2, 271], "dtype": "float32"}, {"name": "embedding_488/embeddings", "shape": [2, 271], "dtype": "float32"}, {"name": "embedding_489/embeddings", "shape": [2, 271], "dtype": "float32"}, {"name": "embedding_49/embeddings", "shape": [2, 1], "dtype": "float32"}, {"name": "embedding_490/embeddings", "shape": [2, 271], "dtype": "float32"}, {"name": "embedding_491/embeddings", "shape": [2, 271], "dtype": "float32"}, {"name": "embedding_492/embeddings", "shape": [2, 271], "dtype": "float32"}, {"name": "embedding_493/embeddings", "shape": [2, 271], "dtype": "float32"}, {"name": "embedding_494/embeddings", "shape": [2, 271], "dtype": "float32"}, {"name": "embedding_495/embeddings", "shape": [2, 271], "dtype": "float32"}, {"name": "embedding_496/embeddings", "shape": [2, 271], "dtype": "float32"}, {"name": "embedding_497/embeddings", "shape": [2, 271], "dtype": "float32"}, {"name": "embedding_498/embeddings", "shape": [2, 271], "dtype": "float32"}, {"name": "embedding_499/embeddings", "shape": [2, 271], "dtype": "float32"}, {"name": "embedding_5/embeddings", "shape": [2, 1], "dtype": "float32"}, {"name": "embedding_50/embeddings", "shape": [2, 1], "dtype": "float32"}, {"name": "embedding_500/embeddings", "shape": [2, 271], "dtype": "float32"}, {"name": "embedding_501/embeddings", "shape": [2, 271], "dtype": "float32"}, {"name": "embedding_502/embeddings", "shape": [2, 271], "dtype": "float32"}, {"name": "embedding_503/embeddings", "shape": [2, 271], "dtype": "float32"}, {"name": "embedding_504/embeddings", "shape": [2, 271], "dtype": "float32"}, {"name": "embedding_505/embeddings", "shape": [2, 271], "dtype": "float32"}, {"name": "embedding_506/embeddings", "shape": [2, 271], "dtype": "float32"}, {"name": "embedding_507/embeddings", "shape": [2, 271], "dtype": "float32"}, {"name": "embedding_508/embeddings", "shape": [2, 271], "dtype": "float32"}, {"name": "embedding_509/embeddings", "shape": [2, 271], "dtype": "float32"}, {"name": "embedding_51/embeddings", "shape": [2, 1], "dtype": "float32"}, {"name": "embedding_510/embeddings", "shape": [2, 271], "dtype": "float32"}, {"name": "embedding_511/embeddings", "shape": [2, 271], "dtype": "float32"}, {"name": "embedding_512/embeddings", "shape": [2, 271], "dtype": "float32"}, {"name": "embedding_513/embeddings", "shape": [2, 271], "dtype": "float32"}, {"name": "embedding_514/embeddings", "shape": [2, 271], "dtype": "float32"}, {"name": "embedding_515/embeddings", "shape": [2, 271], "dtype": "float32"}, {"name": "embedding_516/embeddings", "shape": [2, 271], "dtype": "float32"}, {"name": "embedding_517/embeddings", "shape": [2, 271], "dtype": "float32"}, {"name": "embedding_518/embeddings", "shape": [2, 271], "dtype": "float32"}, {"name": "embedding_519/embeddings", "shape": [2, 271], "dtype": "float32"}, {"name": "embedding_52/embeddings", "shape": [2, 1], "dtype": "float32"}, {"name": "embedding_520/embeddings", "shape": [2, 271], "dtype": "float32"}, {"name": "embedding_521/embeddings", "shape": [2, 271], "dtype": "float32"}, {"name": "embedding_522/embeddings", "shape": [2, 271], "dtype": "float32"}, {"name": "embedding_523/embeddings", "shape": [2, 271], "dtype": "float32"}, {"name": "embedding_524/embeddings", "shape": [2, 271], "dtype": "float32"}, {"name": "embedding_525/embeddings", "shape": [2, 271], "dtype": "float32"}, {"name": "embedding_526/embeddings", "shape": [2, 271], "dtype": "float32"}, {"name": "embedding_527/embeddings", "shape": [2, 271], "dtype": "float32"}, {"name": "embedding_528/embeddings", "shape": [2, 271], "dtype": "float32"}, {"name": "embedding_529/embeddings", "shape": [2, 271], "dtype": "float32"}, {"name": "embedding_53/embeddings", "shape": [2, 1], "dtype": "float32"}, {"name": "embedding_530/embeddings", "shape": [2, 271], "dtype": "float32"}, {"name": "embedding_531/embeddings", "shape": [2, 271], "dtype": "float32"}, {"name": "embedding_532/embeddings", "shape": [2, 271], "dtype": "float32"}, {"name": "embedding_533/embeddings", "shape": [2, 271], "dtype": "float32"}, {"name": "embedding_534/embeddings", "shape": [2, 271], "dtype": "float32"}, {"name": "embedding_535/embeddings", "shape": [2, 271], "dtype": "float32"}, {"name": "embedding_536/embeddings", "shape": [2, 271], "dtype": "float32"}, {"name": "embedding_537/embeddings", "shape": [2, 271], "dtype": "float32"}, {"name": "embedding_538/embeddings", "shape": [2, 271], "dtype": "float32"}, {"name": "embedding_539/embeddings", "shape": [2, 271], "dtype": "float32"}, {"name": "embedding_54/embeddings", "shape": [2, 1], "dtype": "float32"}, {"name": "embedding_55/embeddings", "shape": [2, 1], "dtype": "float32"}, {"name": "embedding_56/embeddings", "shape": [2, 1], "dtype": "float32"}, {"name": "embedding_57/embeddings", "shape": [2, 1], "dtype": "float32"}, {"name": "embedding_58/embeddings", "shape": [2, 1], "dtype": "float32"}, {"name": "embedding_59/embeddings", "shape": [2, 1], "dtype": "float32"}, {"name": "embedding_6/embeddings", "shape": [2, 1], "dtype": "float32"}, {"name": "embedding_60/embeddings", "shape": [2, 1], "dtype": "float32"}, {"name": "embedding_61/embeddings", "shape": [2, 1], "dtype": "float32"}, {"name": "embedding_62/embeddings", "shape": [2, 1], "dtype": "float32"}, {"name": "embedding_63/embeddings", "shape": [2, 1], "dtype": "float32"}, {"name": "embedding_64/embeddings", "shape": [2, 1], "dtype": "float32"}, {"name": "embedding_65/embeddings", "shape": [2, 1], "dtype": "float32"}, {"name": "embedding_66/embeddings", "shape": [2, 1], "dtype": "float32"}, {"name": "embedding_67/embeddings", "shape": [2, 1], "dtype": "float32"}, {"name": "embedding_68/embeddings", "shape": [2, 1], "dtype": "float32"}, {"name": "embedding_69/embeddings", "shape": [2, 1], "dtype": "float32"}, {"name": "embedding_7/embeddings", "shape": [2, 1], "dtype": "float32"}, {"name": "embedding_70/embeddings", "shape": [2, 1], "dtype": "float32"}, {"name": "embedding_71/embeddings", "shape": [2, 1], "dtype": "float32"}, {"name": "embedding_72/embeddings", "shape": [2, 1], "dtype": "float32"}, {"name": "embedding_73/embeddings", "shape": [2, 1], "dtype": "float32"}, {"name": "embedding_74/embeddings", "shape": [2, 1], "dtype": "float32"}, {"name": "embedding_75/embeddings", "shape": [2, 1], "dtype": "float32"}, {"name": "embedding_76/embeddings", "shape": [2, 1], "dtype": "float32"}, {"name": "embedding_77/embeddings", "shape": [2, 1], "dtype": "float32"}, {"name": "embedding_78/embeddings", "shape": [2, 1], "dtype": "float32"}, {"name": "embedding_79/embeddings", "shape": [2, 1], "dtype": "float32"}, {"name": "embedding_8/embeddings", "shape": [2, 1], "dtype": "float32"}, {"name": "embedding_80/embeddings", "shape": [2, 1], "dtype": "float32"}, {"name": "embedding_81/embeddings", "shape": [2, 1], "dtype": "float32"}, {"name": "embedding_82/embeddings", "shape": [2, 1], "dtype": "float32"}, {"name": "embedding_83/embeddings", "shape": [2, 1], "dtype": "float32"}, {"name": "embedding_84/embeddings", "shape": [2, 1], "dtype": "float32"}, {"name": "embedding_85/embeddings", "shape": [2, 1], "dtype": "float32"}, {"name": "embedding_86/embeddings", "shape": [2, 1], "dtype": "float32"}, {"name": "embedding_87/embeddings", "shape": [2, 1], "dtype": "float32"}, {"name": "embedding_88/embeddings", "shape": [2, 1], "dtype": "float32"}, {"name": "embedding_89/embeddings", "shape": [2, 1], "dtype": "float32"}, {"name": "embedding_9/embeddings", "shape": [2, 1], "dtype": "float32"}, {"name": "embedding_90/embeddings", "shape": [2, 1], "dtype": "float32"}, {"name": "embedding_91/embeddings", "shape": [2, 1], "dtype": "float32"}, {"name": "embedding_92/embeddings", "shape": [2, 1], "dtype": "float32"}, {"name": "embedding_93/embeddings", "shape": [2, 1], "dtype": "float32"}, {"name": "embedding_94/embeddings", "shape": [2, 1], "dtype": "float32"}, {"name": "embedding_95/embeddings", "shape": [2, 1], "dtype": "float32"}, {"name": "embedding_96/embeddings", "shape": [2, 1], "dtype": "float32"}, {"name": "embedding_97/embeddings", "shape": [2, 1], "dtype": "float32"}, {"name": "embedding_98/embeddings", "shape": [2, 1], "dtype": "float32"}, {"name": "embedding_99/embeddings", "shape": [2, 1], "dtype": "float32"}]}]}